frigate/plate_detectors/alpr/LPRnet/weight/ocr_model_16_10.tflite (tflite, 586240 bytes, 18 tensors)

batch_normalization/FusedBatchNorm_add_param i1 [64] scale=0.016840747 zero_point=0
0.38733718 0.31997418 1.1114893 -0.33681494 0.06736299 -0.87571883 0.050522238 0.35365567
-0.35365567 -0.18524821 -0.31997418 -0.6736299 0.33681494 2.1387749 0.26945195 0.016840747
0.31997418 0.101044476 -0.050522238 1.0441263 -0.4041779 -0.2526112 -0.2862927 -0.31997418
-0.16840747 0.52206314 -0.31997418 0.21892971 -0.26945195 -0.60626686 -0.38733718 -0.050522238
1.2798967 0.9767633 -1.5998709 1.12833 -0.20208895 -1.7514377 -0.13472597 -0.117885225
0.101044476 0.23577045 1.0946485 -2.0882525 0.117885225 0.70731133 -0.5725854 0.20208895
1.5156672 0.084203735 -0.9767633 0.15156671 0.87571883 0.4041779 0.0 0.0
0.13472597 0.48838165 -0.38733718 -0.90940034 -1.1451708 -0.2526112 -0.18524821 -0.48838165
00000000: 1713 42ec 04cc 0315 ebf5 edd8 147f 1001
00000010: 1306 fd3e e8f1 efed f61f ed0d f0dc e9fd
00000020: 4c3a a143 f498 f8f9 060e 4184 072a de0c
00000030: 5a05 c609 3418 0000 081d e9ca bcf1 f5e3

batch_normalization/FusedBatchNorm_mul_0_param i1 [64] scale=0.012181504 zero_point=0
0.7674347 0.74307173 0.7187087 1.547051 0.6943457 0.82834226 0.70652723 0.63343817
0.9257943 0.81616074 0.9988833 0.90143126 0.82834226 0.4019896 1.1694243 0.6821642
0.6456197 0.86488676 0.8770683 0.66998273 0.77961624 0.63343817 0.5725307 0.6821642
0.63343817 0.5725307 0.56034917 0.6578012 0.6943457 0.5725307 0.6212567 0.81616074
0.5359862 0.5359862 0.70652723 0.70652723 0.58471215 0.8039792 0.81616074 0.6090752
0.63343817 0.75525326 0.6578012 0.6821642 0.7674347 0.6821642 1.4130545 0.6456197
0.77961624 0.7308902 0.8405238 0.59689367 0.6212567 0.86488676 0.9136128 0.75525326
0.77961624 0.81616074 0.6578012 0.9136128 0.82834226 0.5725307 0.70652723 0.46289715
00000000: 3f3d 3b7f 3944 3a34 4c43 524a 4421 6038
00000010: 3547 4837 4034 2f38 342f 2e36 392f 3343
00000020: 2c2c 3a3a 3042 4332 343e 3638 3f38 7435
00000030: 403c 4531 3347 4b3e 4043 364b 442f 3a26

conv1/w i1 [64, 3, 3, 3]
-38 31 24 82 -59 -19 127 -44
-54 -123 8 7 33 -28 -9 124
-35 -67 -98 30 34 19 -20 1
89 -15 -51 -21 24 -28 29 -7
-5 -6 -56 -33 7 20 -17 9
5 37 -5 -81 -127 21 28 -5
-1 -113 -93 -17 39 55 83 -1
-72 4 -8 -14 -127 -73 27 108
22 -114 44 23 -82 -119 -29 -5
38 -11 -54 112 -11 -116 -60 22
4 1 2 1 -11 1 3 -127
-85 -64 -1 3 2 -13 0 1
-112 -69 -59 5 -1 -3 1 2
1 -1 5 3 22 50 97 -58
-102 -91 33 22 -23 69 127 69
-60 -53 -2 -20 -83 -52 37 102
88 -13 -51 -21 -5 -11 -47 -4
3 5 1 -98 -124 0 36 2
10 24 34 8 33 33 2 -120
-127 -26 3 -9 -29 -37 -66 -30
9 -28 -11 -9 -30 -45 -68 -22
-32 -28 -47 -3 -25 23 47 127
86 73 121 107 6 8 -3 8
-7 -18 -29 -125 -99 63 22 38
22 65 41 -7 -77 -51 23 62
50 13 78 59 -57 -127 -111 -7
-50 4 60 69 85 -63 -74 -78
69 -44 -36 110 -77 -65 97 -82
-40 -65 31 45 -127 104 62 -67
54 44 -6 14 -4 7 -32 1
-19 29 -7 63 -88 -26 -2 64
31 -54 72 52 53 -127 -86 1
00000000: da1f 1852 c5ed 7fd4 ca85 0807 21e4 f77c
00000010: ddbd 9e1e 2213 ec01 59f1 cdeb 18e4 1df9
00000020: fbfa c8df 0714 ef09 0525 fbaf 8115 1cfb
00000030: ff8f a3ef 2737 53ff b804 f8f2 81b7 1b6c
00000040: 168e 2c17 ae89 e3fb 26f5 ca70 f58c c416
00000050: 0401 0201 f501 0381 abc0 ff03 02f3 0001
00000060: 90bb c505 fffd 0102 01ff 0503 1632 61c6
00000070: 9aa5 2116 e945 7f45 c4cb feec adcc 2566
00000080: 58f3 cdeb fbf5 d1fc 0305 019e 8400 2402
00000090: 0a18 2208 2121 0288 81e6 03f7 e3db bee2
000000a0: 09e4 f5f7 e2d3 bcea e0e4 d1fd e717 2f7f
000000b0: 5649 796b 0608 fd08 f9ee e383 9d3f 1626
000000c0: 1641 29f9 b3cd 173e 320d 4e3b c781 91f9
000000d0: ce04 3c45 55c1 b6b2 45d4 dc6e b3bf 61ae
000000e0: d8bf 1f2d 8168 3ebd 362c fa0e fc07 e001
000000f0: ed1d f93f a8e6 fe40 1fca 4834 3581 aa01

conv_d1/w i1 [256, 1, 4, 256]
-13 34 -31 -43 47 -53 32 -6
9 -22 4 1 -41 -11 -14 -25
5 15 -4 8 3 -30 -3 -29
-21 -28 33 -27 -38 -4 10 -7
-25 -37 -1 -44 -40 -5 2 8
-21 -15 -42 36 -4 -6 74 0
32 -13 12 -5 -70 -16 4 32
-1 22 11 16 -12 -10 -12 -20
-74 -13 2 -38 -27 -31 -32 -23
-42 58 8 20 12 43 17 7
28 14 -27 38 12 4 12 -50
-14 -7 -37 -29 -49 -24 26 1
-44 -17 -49 -11 -13 20 18 -38
8 -30 50 -38 31 38 -3 23
-9 -63 -22 33 -6 -11 -13 -21
-10 -52 17 -54 9 -9 -63 -11
-16 -61 -16 -21 -13 36 18 54
-27 -12 -5 -22 -41 14 3 -9
-34 -27 -10 -15 -40 20 -12 -57
-3 15 40 -57 -48 8 -3 -10
11 -20 -20 44 35 -17 -14 -27
-28 24 5 -26 6 27 -6 -49
-19 -4 22 -8 -19 -8 -27 -24
22 -16 -26 -49 -40 -43 23 6
7 -40 -26 15 0 -34 -45 21
-18 33 -33 22 -18 -18 -12 19
-59 -79 24 21 -10 -15 0 -28
-30 -55 4 -32 -28 -19 19 -9
12 2 -23 -60 -28 31 24 26
-27 -4 -15 -36 7 10 10 7
-23 -4 20 -45 -1 5 -17 -16
-14 -7 50 13 20 -11 -33 -50
00000000: f322 e1d5 2fcb 20fa 09ea 0401 d7f5 f2e7
00000010: 050f fc08 03e2 fde3 ebe4 21e5 dafc 0af9
00000020: e7db ffd4 d8fb 0208 ebf1 d624 fcfa 4a00
00000030: 20f3 0cfb baf0 0420 ff16 0b10 f4f6 f4ec
00000040: b6f3 02da e5e1 e0e9 d63a 0814 0c2b 1107
00000050: 1c0e e526 0c04 0cce f2f9 dbe3 cfe8 1a01
00000060: d4ef cff5 f314 12da 08e2 32da 1f26 fd17
00000070: f7c1 ea21 faf5 f3eb f6cc 11ca 09f7 c1f5
00000080: f0c3 f0eb f324 1236 e5f4 fbea d70e 03f7
00000090: dee5 f6f1 d814 f4c7 fd0f 28c7 d008 fdf6
000000a0: 0bec ec2c 23ef f2e5 e418 05e6 061b facf
000000b0: edfc 16f8 edf8 e5e8 16f0 e6cf d8d5 1706
000000c0: 07d8 e60f 00de d315 ee21 df16 eeee f413
000000d0: c5b1 1815 f6f1 00e4 e2c9 04e0 e4ed 13f7
000000e0: 0c02 e9c4 e41f 181a e5fc f1dc 070a 0a07
000000f0: e9fc 14d3 ff05 eff0 f2f9 320d 14f5 dfce

conv_d2/w i1 [35, 13, 1, 256]
1 -1 -14 6 -7 31 2 28
58 -5 -58 -47 3 18 12 42
-10 -6 14 -9 -1 33 38 15
0 19 -28 16 -15 21 6 -22
-57 -5 1 -25 15 16 7 -73
16 20 -47 -5 37 5 5 -7
-14 8 21 29 15 6 -5 -28
14 4 -38 4 -22 22 -19 3
-16 -69 25 22 -27 32 -29 10
22 -33 39 -8 28 9 -4 72
-15 -12 12 5 -49 18 20 -1
14 -23 0 7 43 14 10 2
40 16 -10 22 -23 -27 12 -7
13 16 -35 8 43 -26 24 25
-27 -21 18 6 23 30 -17 40
-3 30 -59 -52 12 -6 19 15
15 -32 -4 30 18 23 -24 -2
37 -15 12 2 -18 18 -64 8
-11 -34 -25 5 -6 -15 -4 12
19 -28 5 69 27 -2 6 -26
-41 -15 36 -11 0 16 -4 -29
-53 10 3 8 -13 0 -16 1
11 -78 -3 -25 -9 14 -33 1
14 -13 -29 3 -23 -29 54 19
6 -10 14 -127 16 12 8 -18
-6 26 -43 0 7 7 -31 -36
-22 -1 6 2 -60 -10 10 9
7 -9 19 -13 0 12 -12 -45
13 27 -46 27 31 20 -25 -13
-6 -48 13 10 25 -11 -21 -32
33 -7 -12 26 -25 11 -11 -24
-3 4 -13 -5 11 41 -11 -26
00000000: 01ff f206 f91f 021c 3afb c6d1 0312 0c2a
00000010: f6fa 0ef7 ff21 260f 0013 e410 f115 06ea
00000020: c7fb 01e7 0f10 07b7 1014 d1fb 2505 05f9
00000030: f208 151d 0f06 fbe4 0e04 da04 ea16 ed03
00000040: f0bb 1916 e520 e30a 16df 27f8 1c09 fc48
00000050: f1f4 0c05 cf12 14ff 0ee9 0007 2b0e 0a02
00000060: 2810 f616 e9e5 0cf9 0d10 dd08 2be6 1819
00000070: e5eb 1206 171e ef28 fd1e c5cc 0cfa 130f
00000080: 0fe0 fc1e 1217 e8fe 25f1 0c02 ee12 c008
00000090: f5de e705 faf1 fc0c 13e4 0545 1bfe 06e6
000000a0: d7f1 24f5 0010 fce3 cb0a 0308 f300 f001
000000b0: 0bb2 fde7 f70e df01 0ef3 e303 e9e3 3613
000000c0: 06f6 0e81 100c 08ee fa1a d500 0707 e1dc
000000d0: eaff 0602 c4f6 0a09 07f7 13f3 000c f4d3
000000e0: 0d1b d21b 1f14 e7f3 fad0 0d0a 19f5 ebe0
000000f0: 21f9 f41a e70b f5e8 fd04 f3fb 0b29 f5e6

conv_out/w i1 [35, 1, 1, 483]
51 17 34 54 49 49 -8 -21
36 -55 20 59 27 21 53 -16
-69 -11 15 41 -33 41 -44 54
-49 70 30 55 53 -19 -31 7
-12 -37 13 -56 -20 45 -52 -82
-31 46 0 8 29 -76 61 -2
32 -52 29 11 74 44 14 4
-44 -20 41 20 52 26 18 -37
31 23 -32 17 42 -15 36 -20
-62 26 3 -30 25 6 -6 20
-31 -12 -13 3 -5 -54 23 -47
5 -28 -14 -12 -33 4 26 1
23 -29 4 11 3 -34 40 -19
-72 18 19 4 24 -25 4 -12
20 -8 -15 -53 -5 24 6 -20
-6 -42 4 1 -27 24 16 -61
-5 27 -44 -24 12 5 66 8
-25 12 -19 -17 18 -35 0 2
2 21 -23 12 1 5 -11 -17
-25 -10 -18 13 3 -1 0 1
8 -6 14 -4 -12 -17 -1 -5
-15 19 -22 -2 -73 26 -14 -9
-20 29 -2 -18 -22 4 4 -28
20 37 -3 2 24 9 14 -19
-32 -127 -42 -38 -39 -91 -17 0
17 24 -18 -20 -31 -3 17 -16
-37 -8 6 -16 50 -7 21 -15
11 -17 48 -25 -21 -8 -22 -39
7 33 -10 -34 10 -23 5 2
-43 -8 -75 -17 41 -32 38 -50
9 -29 -1 -2 2 -7 -10 -28
-41 -63 40 27 -7 -57 -14 -22
00000000: 3311 2236 3131 f8eb 24c9 143b 1b15 35f0
00000010: bbf5 0f29 df29 d436 cf46 1e37 35ed e107
00000020: f4db 0dc8 ec2d ccae e12e 0008 1db4 3dfe
00000030: 20cc 1d0b 4a2c 0e04 d4ec 2914 341a 12db
00000040: 1f17 e011 2af1 24ec c21a 03e2 1906 fa14
00000050: e1f4 f303 fbca 17d1 05e4 f2f4 df04 1a01
00000060: 17e3 040b 03de 28ed b812 1304 18e7 04f4
00000070: 14f8 f1cb fb18 06ec fad6 0401 e518 10c3
00000080: fb1b d4e8 0c05 4208 e70c edef 12dd 0002
00000090: 0215 e90c 0105 f5ef e7f6 ee0d 03ff 0001
000000a0: 08fa 0efc f4ef fffb f113 eafe b71a f2f7
000000b0: ec1d feee ea04 04e4 1425 fd02 1809 0eed
000000c0: e081 d6da d9a5 ef00 1118 eeec e1fd 11f0
000000d0: dbf8 06f0 32f9 15f1 0bef 30e7 ebf8 ead9
000000e0: 0721 f6de 0ae9 0502 d5f8 b5ef 29e0 26ce
000000f0: 09e3 fffe 02f9 f6e4 d7c1 281b f9c7 f2ea

sbb1/conv1/w i1 [32, 1, 1, 64]
-19 0 38 8 3 -127 -4 -38
-120 -10 35 38 107 -28 -51 102
-70 -57 9 18 -124 18 43 48
-16 89 -80 34 37 33 -11 -109
-4 -37 7 -20 75 -93 27 -54
18 15 33 -93 -102 -120 60 -36
74 -43 0 44 -32 -5 -56 -68
61 33 29 125 -44 -77 13 27
30 -9 34 1 22 42 -55 -29
13 -11 6 -36 -127 26 -9 -29
21 52 75 59 -94 13 -18 -44
-76 41 15 -15 -83 43 -12 62
78 36 -5 112 27 31 17 65
-78 9 -30 77 -9 -18 54 39
34 35 -18 -19 -10 -35 -99 -40
-81 -40 -38 54 -19 72 -17 23
-102 0 87 -28 119 96 90 5
47 4 -23 -24 0 11 -20 46
-122 70 34 68 39 -4 -115 -127
-79 54 -46 -46 90 -84 -65 36
57 2 -28 -99 -24 1 -99 -62
-34 -65 34 -32 34 -40 15 47
9 73 6 -24 -97 -124 -71 -17
-19 4 -45 -30 15 4 24 -10
20 -40 46 -73 -18 -57 42 -23
127 -35 -7 5 -1 42 -24 34
63 12 -5 47 16 -53 -27 -29
18 8 3 -52 -38 -11 1 73
83 52 36 42 30 -2 -63 -39
-44 1 -60 40 29 -8 -79 81
64 20 -36 20 34 11 0 4
-62 -32 -23 80 -52 -2 -17 40
00000000: ed00 2608 0381 fcda 88f6 2326 6be4 cd66
00000010: bac7 0912 8412 2b30 f059 b022 2521 f593
00000020: fcdb 07ec 4ba3 1bca 120f 21a3 9a88 3cdc
00000030: 4ad5 002c e0fb c8bc 3d21 1d7d d4b3 0d1b
00000040: 1ef7 2201 162a c9e3 0df5 06dc 811a f7e3
00000050: 1534 4b3b a20d eed4 b429 0ff1 ad2b f43e
00000060: 4e24 fb70 1b1f 1141 b209 e24d f7ee 3627
00000070: 2223 eeed f6dd 9dd8 afd8 da36 ed48 ef17
00000080: 9a00 57e4 7760 5a05 2f04 e9e8 000b ec2e
00000090: 8646 2244 27fc 8d81 b136 d2d2 5aac bf24
000000a0: 3902 e49d e801 9dc2 debf 22e0 22d8 0f2f
000000b0: 0949 06e8 9f84 b9ef ed04 d3e2 0f04 18f6
000000c0: 14d8 2eb7 eec7 2ae9 7fdd f905 ff2a e822
000000d0: 3f0c fb2f 10cb e5e3 1208 03cc daf5 0149
000000e0: 5334 242a 1efe c1d9 d401 c428 1df8 b151
000000f0: 4014 dc14 220b 0004 c2e0 e950 ccfe ef28

sbb1/conv2/w i1 [32, 1, 3, 32]
22 127 -33 113 50 -17 30 -95
-45 -43 -29 -9 27 -33 69 -17
29 -71 9 -21 -43 -41 -26 94
-37 33 13 48 -12 -3 -26 92
15 17 -112 24 8 2 -4 19
2 43 12 -11 -6 71 14 -6
0 -8 -47 29 6 -11 2 -40
89 -29 23 -2 -53 59 -8 -83
69 -101 -30 -73 -3 8 33 30
62 83 72 38 -45 -22 -15 -66
1 -62 -48 51 -44 61 -32 -90
-67 4 29 -18 57 95 -2 -74
-22 26 -15 -77 -19 14 -30 29
-19 54 19 11 -63 97 -43 28
-49 -48 127 3 -55 -37 44 -83
106 -24 -12 -69 34 97 76 -122
-96 20 9 5 -6 1 -65 -23
-39 -7 -52 -25 -9 69 23 42
1 3 -15 -3 -5 22 35 64
-39 -35 17 -3 -15 -70 63 94
-73 -46 27 54 -25 -68 12 -82
-72 -42 -25 -14 -73 109 16 -65
-7 -51 -74 -70 -62 54 -31 31
-51 -93 5 20 24 -71 -34 46
5 -52 -18 -12 10 24 32 3
45 -5 -48 40 -16 41 16 -21
-1 -20 -48 5 -23 -28 -45 50
34 12 25 31 4 -52 26 26
16 23 18 -25 35 50 40 5
62 -4 5 -7 9 16 69 35
29 26 19 41 33 -19 127 -40
61 1 17 19 4 5 10 16
00000000: 167f df71 32ef 1ea1 d3d5 e3f7 1bdf 45ef
00000010: 1db9 09eb d5d7 e65e db21 0d30 f4fd e65c
00000020: 0f11 9018 0802 fc13 022b 0cf5 fa47 0efa
00000030: 00f8 d11d 06f5 02d8 59e3 17fe cb3b f8ad
00000040: 459b e2b7 fd08 211e 3e53 4826 d3ea f1be
00000050: 01c2 d033 d43d e0a6 bd04 1dee 395f feb6
00000060: ea1a f1b3 ed0e e21d ed36 130b c161 d51c
00000070: cfd0 7f03 c9db 2cad 6ae8 f4bb 2261 4c86
00000080: a014 0905 fa01 bfe9 d9f9 cce7 f745 172a
00000090: 0103 f1fd fb16 2340 d9dd 11fd f1ba 3f5e
000000a0: b7d2 1b36 e7bc 0cae b8d6 e7f2 b76d 10bf
000000b0: f9cd b6ba c236 e11f cda3 0514 18b9 de2e
000000c0: 05cc eef4 0a18 2003 2dfb d028 f029 10eb
000000d0: ffec d005 e9e4 d332 220c 191f 04cc 1a1a
000000e0: 1017 12e7 2332 2805 3efc 05f9 0910 4523
000000f0: 1d1a 1329 21ed 7fd8 3d01 1113 0405 0a10

sbb1/conv3/w i1 [32, 3, 1, 32]
-21 -55 40 16 -45 60 -46 -61
22 -84 -28 -11 17 1 33 -47
-47 17 -8 42 16 24 65 30
-17 8 69 -12 5 25 5 -67
-127 73 -31 33 -24 76 18 -1
-21 -83 24 -1 49 3 75 -21
64 42 -29 -21 32 -57 97 -2
16 56 15 19 -10 -56 34 -41
9 60 17 51 34 -44 -37 1
-4 73 28 -1 23 0 -8 -2
-62 12 2 -62 54 -27 -53 -19
27 -15 -34 15 23 14 -8 54
5 -101 52 56 -43 -11 -30 121
-23 3 59 8 87 -35 -75 -60
-71 -22 -108 -107 78 65 28 77
43 15 -5 -99 -14 -24 1 -28
-16 17 -19 -20 -4 21 -44 45
-9 13 37 22 -15 -26 5 7
45 11 24 -34 -5 -43 -23 6
49 67 -19 10 -6 -60 16 41
19 33 -45 -127 -13 -92 5 -93
5 33 22 46 -10 52 53 66
25 -45 34 25 -15 -37 -16 -41
-21 -12 26 -21 -47 25 7 -4
14 -127 -27 104 -6 -18 -2 -24
-53 -44 16 -39 67 29 -54 -28
-36 35 -34 -15 24 19 -3 -19
-70 30 10 -43 71 -28 25 -4
65 -40 12 10 80 -28 19 8
32 48 58 26 -12 28 23 16
15 -110 -1 43 -69 -50 -85 1
32 -56 -21 56 10 -11 -26 38
00000000: ebc9 2810 d33c d2c3 16ac e4f5 1101 21d1
00000010: d111 f82a 1018 411e ef08 45f4 0519 05bd
00000020: 8149 e121 e84c 12ff ebad 18ff 3103 4beb
00000030: 402a e3eb 20c7 61fe 1038 0f13 f6c8 22d7
00000040: 093c 1133 22d4 db01 fc49 1cff 1700 f8fe
00000050: c20c 02c2 36e5 cbed 1bf1 de0f 170e f836
00000060: 059b 3438 d5f5 e279 e903 3b08 57dd b5c4
00000070: b9ea 9495 4e41 1c4d 2b0f fb9d f2e8 01e4
00000080: f011 edec fc15 d42d f70d 2516 f1e6 0507
00000090: 2d0b 18de fbd5 e906 3143 ed0a fac4 1029
000000a0: 1321 d381 f3a4 05a3 0521 162e f634 3542
000000b0: 19d3 2219 f1db f0d7 ebf4 1aeb d119 07fc
000000c0: 0e81 e568 faee fee8 cbd4 10d9 431d cae4
000000d0: dc23 def1 1813 fded ba1e 0ad5 47e4 19fc
000000e0: 41d8 0c0a 50e4 1308 2030 3a1a f41c 1710
000000f0: 0f92 ff2b bbce ab01 20c8 eb38 0af5 e626

sbb1/conv4/w i1 [128, 1, 1, 32]
9 19 3 56 23 -27 -3 56
-43 -50 38 12 -97 40 -37 -46
-86 -24 -33 -16 -127 -99 15 33
4 34 -31 -13 -34 31 22 -23
-56 56 10 -19 -21 1 -28 -36
-51 -46 64 -59 98 -127 19 18
-52 -20 -25 -26 20 26 -62 -24
-7 16 -23 8 21 -24 -23 -15
8 6 -44 -41 34 15 -13 -33
127 -9 116 -26 89 -16 -33 6
-51 9 -122 41 20 48 -15 0
-54 -45 -61 -60 20 3 -70 34
95 62 -47 -42 -19 -76 -84 -60
-17 -3 -62 16 -123 -28 -27 101
58 -85 0 32 -127 -57 -26 6
46 18 9 -22 23 6 -57 37
77 -37 26 -72 -24 -92 18 -60
-127 109 -76 -60 -16 -98 -71 -8
75 -46 -65 81 -22 -70 -22 -8
-61 2 -52 8 -96 112 63 26
-27 21 79 -60 14 26 105 -78
-127 -63 88 12 -39 -6 68 -17
-53 54 -35 17 -51 -43 -36 40
-1 -51 26 14 6 -91 91 -18
-36 -17 29 -32 25 -127 30 -41
44 -97 -68 -12 -12 -7 43 -49
91 -93 -32 53 -92 23 -37 79
-99 -65 -53 18 -91 126 -57 18
-24 25 -35 -32 -83 -10 97 15
-72 7 -82 15 -12 -24 -24 29
61 -127 11 -55 -93 92 -35 -14
-35 -98 29 -55 7 40 -14 -53
00000000: 0913 0338 17e5 fd38 d5ce 260c 9f28 dbd2
00000010: aae8 dff0 819d 0f21 0422 e1f3 de1f 16e9
00000020: c838 0aed eb01 e4dc cdd2 40c5 6281 1312
00000030: ccec e7e6 141a c2e8 f910 e908 15e8 e9f1
00000040: 0806 d4d7 220f f3df 7ff7 74e6 59f0 df06
00000050: cd09 8629 1430 f100 cad3 c3c4 1403 ba22
00000060: 5f3e d1d6 edb4 acc4 effd c210 85e4 e565
00000070: 3aab 0020 81c7 e606 2e12 09ea 1706 c725
00000080: 4ddb 1ab8 e8a4 12c4 816d b4c4 f09e b9f8
00000090: 4bd2 bf51 eaba eaf8 c302 cc08 a070 3f1a
000000a0: e515 4fc4 0e1a 69b2 81c1 580c d9fa 44ef
000000b0: cb36 dd11 cdd5 dc28 ffcd 1a0e 06a5 5bee
000000c0: dcef 1de0 1981 1ed7 2c9f bcf4 f4f9 2bcf
000000d0: 5ba3 e035 a417 db4f 9dbf cb12 a57e c712
000000e0: e819 dde0 adf6 610f b807 ae0f f4e8 e81d
000000f0: 3d81 0bc9 a35c ddf2 dd9e 1dc9 0728 f2cb

sbb2/conv1/w i1 [64, 1, 1, 128]
-20 -30 -31 71 71 1 7 -57
-56 -56 -23 37 -50 61 -2 -53
16 2 -51 -11 28 -28 -6 -61
-27 29 -41 28 -39 -42 29 -34
-30 -63 8 4 61 11 40 -3
32 -26 -9 -28 21 47 -71 -127
9 -30 -50 -4 0 24 30 39
14 13 -21 -64 -14 -38 -27 38
40 -56 24 30 -66 32 -16 0
54 23 -4 -4 -25 22 60 -20
-31 18 -2 -43 27 -35 -21 -15
51 -31 -9 -30 -24 77 -28 -30
27 57 30 -57 -26 -22 -5 0
-10 11 -23 -39 54 -2 4 38
-14 18 -95 -26 -57 -57 -7 -63
-98 -13 -12 24 -87 38 68 -28
-54 15 -13 0 -22 9 -12 -10
48 59 -14 5 14 -12 -46 6
-34 12 -39 9 -2 21 -38 -64
17 -3 -39 43 36 -6 0 -47
20 38 -11 -2 35 16 -7 -19
8 5 -25 -35 -38 -13 -35 18
-10 8 9 -77 30 2 -14 20
4 5 -26 -10 -9 -21 20 15
-37 -15 -26 -34 65 14 -2 -8
-7 -20 3 5 11 -22 -127 29
-10 44 1 39 -12 -5 -81 12
-9 26 -48 0 -32 -23 -16 -1
5 4 -7 -16 32 48 -15 47
1 -3 58 29 -24 -9 19 -57
-47 21 45 -10 -41 5 21 35
10 -32 6 -1 16 1 26 -38
00000000: ece2 e147 4701 07c7 c8c8 e925 ce3d fecb
00000010: 1002 cdf5 1ce4 fac3 e51d d71c d9d6 1dde
00000020: e2c1 0804 3d0b 28fd 20e6 f7e4 152f b981
00000030: 09e2 cefc 0018 1e27 0e0d ebc0 f2da e526
00000040: 28c8 181e be20 f000 3617 fcfc e716 3cec
00000050: e112 fed5 1bdd ebf1 33e1 f7e2 e84d e4e2
00000060: 1b39 1ec7 e6ea fb00 f60b e9d9 36fe 0426
00000070: f212 a1e6 c7c7 f9c1 9ef3 f418 a926 44e4
00000080: ca0f f300 ea09 f4f6 303b f205 0ef4 d206
00000090: de0c d909 fe15 dac0 11fd d92b 24fa 00d1
000000a0: 1426 f5fe 2310 f9ed 0805 e7dd daf3 dd12
000000b0: f608 09b3 1e02 f214 0405 e6f6 f7eb 140f
000000c0: dbf1 e6de 410e fef8 f9ec 0305 0bea 811d
000000d0: f62c 0127 f4fb af0c f71a d000 e0e9 f0ff
000000e0: 0504 f9f0 2030 f12f 01fd 3a1d e8f7 13c7
000000f0: d115 2df6 d705 1523 0ae0 06ff 1001 1ada

sbb2/conv2/w i1 [64, 1, 3, 64]
-7 12 71 11 -23 -27 -127 40
-14 -20 27 8 -3 -21 -22 -6
46 17 -58 -43 -79 17 -15 10
4 52 -37 3 11 24 7 46
55 20 -2 51 2 -45 -2 -78
-3 -21 19 -11 -73 -69 -25 18
-22 -6 23 -7 -20 -11 47 -31
-90 -66 -56 5 -72 26 37 17
-56 16 19 -19 -8 -11 -29 13
10 -59 -37 -55 48 22 -5 2
23 -26 8 -6 -32 28 -48 27
-52 25 15 17 -16 -15 5 17
-7 27 -25 -33 19 4 20 9
12 -23 -36 -103 6 -8 7 14
-9 -13 24 -57 6 -8 24 8
-59 28 -19 -1 32 43 24 10
-7 18 -43 1 -21 -10 20 -49
33 -14 14 -88 9 -19 27 24
-24 -23 -39 29 -23 18 29 7
12 -28 23 32 11 -23 0 32
2 -24 -1 -8 22 24 -11 15
5 -8 -43 14 -11 55 14 -2
-5 -1 32 49 17 26 0 -109
6 6 9 60 -9 -7 -30 17
-5 -47 41 -15 -2 -23 -28 -20
37 25 7 43 -10 37 -7 11
-17 42 29 36 38 41 -14 -30
10 -91 -33 -41 -5 -21 -15 85
1 -73 22 9 25 -24 -66 -59
72 21 44 -52 33 -19 -13 1
5 -59 53 -18 40 -26 22 -71
-3 20 20 -40 10 17 58 -2
00000000: f90c 470b e9e5 8128 f2ec 1b08 fdeb eafa
00000010: 2e11 c6d5 b111 f10a 0434 db03 0b18 072e
00000020: 3714 fe33 02d3 feb2 fdeb 13f5 b7bb e712
00000030: eafa 17f9 ecf5 2fe1 a6be c805 b81a 2511
00000040: c810 13ed f8f5 e30d 0ac5 dbc9 3016 fb02
00000050: 17e6 08fa e01c d01b cc19 0f11 f0f1 0511
00000060: f91b e7df 1304 1409 0ce9 dc99 06f8 070e
00000070: f7f3 18c7 06f8 1808 c51c edff 202b 180a
00000080: f912 d501 ebf6 14cf 21f2 0ea8 09ed 1b18
00000090: e8e9 d91d e912 1d07 0ce4 1720 0be9 0020
000000a0: 02e8 fff8 1618 f50f 05f8 d50e f537 0efe
000000b0: fbff 2031 111a 0093 0606 093c f7f9 e211
000000c0: fbd1 29f1 fee9 e4ec 2519 072b f625 f90b
000000d0: ef2a 1d24 2629 f2e2 0aa5 dfd7 fbeb f155
000000e0: 01b7 1609 19e8 bec5 4815 2ccc 21ed f301
000000f0: 05c5 35ee 28e6 16b9 fd14 14d8 0a11 3afe

sbb2/conv3/w i1 [64, 3, 1, 64]
-42 -108 57 -42 52 -30 5 -39
-29 33 46 -1 50 -23 57 23
10 60 16 45 21 8 -75 -8
26 14 41 -36 -3 13 -58 -82
26 -76 -93 -106 -51 62 -67 25
-110 -81 15 17 -6 -70 -6 -4
-19 15 26 78 23 -28 -122 -73
41 2 26 -52 -36 -18 -23 22
-38 54 24 -27 30 23 17 3
17 -11 9 19 38 18 -60 61
17 -6 25 -36 10 2 -44 88
41 73 -22 2 -38 14 -33 95
-37 -84 -10 7 -30 -7 -60 -68
28 -44 -2 63 20 -86 -2 5
3 -66 16 30 0 -46 6 24
40 18 -34 -114 0 -56 -9 2
30 -16 -71 -32 24 -7 86 -7
-3 -27 85 50 -12 2 39 -127
30 -59 1 -74 -87 53 103 90
31 71 20 -3 -67 -12 -32 35
-19 -39 109 19 41 -72 88 -15
103 -25 97 -92 -44 -100 -36 -111
11 -10 -1 -28 -20 -45 -28 11
-9 -70 -39 -27 -14 -4 15 -19
31 -19 25 -114 -49 13 -11 68
67 0 -6 32 48 28 9 22
57 -12 -22 65 46 15 -34 -44
100 7 28 -1 21 40 -5 -76
42 97 -65 73 -94 41 -72 -98
-38 37 -8 -72 31 101 108 9
22 -78 12 37 -11 -87 -21 -123
16 -28 -67 49 -59 77 54 66
00000000: d694 39d6 34e2 05d9 e321 2eff 32e9 3917
00000010: 0a3c 102d 1508 b5f8 1a0e 29dc fd0d c6ae
00000020: 1ab4 a396 cd3e bd19 92af 0f11 faba fafc
00000030: ed0f 1a4e 17e4 86b7 2902 1acc dcee e916
00000040: da36 18e5 1e17 1103 11f5 0913 2612 c43d
00000050: 11fa 19dc 0a02 d458 2949 ea02 da0e df5f
00000060: dbac f607 e2f9 c4bc 1cd4 fe3f 14aa fe05
00000070: 03be 101e 00d2 0618 2812 de8e 00c8 f702
00000080: 1ef0 b9e0 18f9 56f9 fde5 5532 f402 2781
00000090: 1ec5 01b6 a935 675a 1f47 14fd bdf4 e023
000000a0: edd9 6d13 29b8 58f1 67e7 61a4 d49c dc91
000000b0: 0bf6 ffe4 ecd3 e40b f7ba d9e5 f2fc 0fed
000000c0: 1fed 198e cf0d f544 4300 fa20 301c 0916
000000d0: 39f4 ea41 2e0f ded4 6407 1cff 1528 fbb4
000000e0: 2a61 bf49 a229 b89e da25 f8b8 1f65 6c09
000000f0: 16b2 0c25 f5a9 eb85 10e4 bd31 c54d 3642

sbb2/conv4/w i1 [256, 1, 1, 64]
-15 -82 -43 -17 5 -11 -1 3
-39 -82 -30 -2 -4 -36 78 35
7 -24 45 32 16 -79 3 -41
43 30 42 4 16 -70 -66 10
-4 8 -34 49 11 -7 37 -11
40 4 23 -82 40 -92 19 -26
-29 38 -22 -20 2 -127 -8 36
10 38 -25 50 -76 -39 25 18
-15 1 -38 -41 -16 23 13 -89
48 29 45 -27 32 -40 25 -3
-37 -1 28 -17 39 64 13 32
-34 -91 9 -39 35 62 -21 59
-23 28 -66 -45 40 12 62 -127
-24 17 24 -35 -28 4 58 -67
11 91 -43 37 -3 -33 -56 37
47 12 26 12 -21 28 -5 -37
-84 -32 8 8 -64 -1 34 -108
-25 46 -25 -4 10 -25 -74 14
-69 -35 49 -51 82 -71 -91 -8
10 77 -102 -3 -11 -37 -40 76
-21 15 -75 -127 -37 -72 -51 -12
-52 13 35 -59 -27 26 12 -56
67 50 52 7 50 11 -38 47
-30 -32 27 -22 27 -78 0 -34
-15 -39 -7 53 20 13 -39 19
65 34 -60 -11 71 50 33 -3
-79 22 72 -57 -127 -30 9 -17
-60 43 -112 -26 -11 -15 -64 -24
-28 21 -32 25 -12 61 -28 17
-63 -9 -49 34 -41 -42 43 -70
-69 -39 -17 18 -17 43 -108 -37
-33 -45 76 -95 29 52 -15 -53
00000000: f1ae d5ef 05f5 ff03 d9ae e2fe fcdc 4e23
00000010: 07e8 2d20 10b1 03d7 2b1e 2a04 10ba be0a
00000020: fc08 de31 0bf9 25f5 2804 17ae 28a4 13e6
00000030: e326 eaec 0281 f824 0a26 e732 b4d9 1912
00000040: f101 dad7 f017 0da7 301d 2de5 20d8 19fd
00000050: dbff 1cef 2740 0d20 dea5 09d9 233e eb3b
00000060: e91c bed3 280c 3e81 e811 18dd e404 3abd
00000070: 0b5b d525 fddf c825 2f0c 1a0c eb1c fbdb
00000080: ace0 0808 c0ff 2294 e72e e7fc 0ae7 b60e
00000090: bbdd 31cd 52b9 a5f8 0a4d 9afd f5db d84c
000000a0: eb0f b581 dbb8 cdf4 cc0d 23c5 e51a 0cc8
000000b0: 4332 3407 320b da2f e2e0 1bea 1bb2 00de
000000c0: f1d9 f935 140d d913 4122 c4f5 4732 21fd
000000d0: b116 48c7 81e2 09ef c42b 90e6 f5f1 c0e8
000000e0: e415 e019 f43d e411 c1f7 cf22 d7d6 2bba
000000f0: bbd9 ef12 ef2b 94db dfd3 4ca1 1d34 f1cb

sbb3/conv1/w i1 [64, 1, 1, 256]
-104 -30 -20 -28 57 -14 34 17
-2 -64 32 34 -91 40 52 -4
-44 21 -31 -25 -42 -29 -105 18
1 -29 -48 19 2 -71 33 29
-55 -29 19 0 2 -89 -16 4
-3 -84 89 27 -9 -42 54 -55
-12 -44 -21 -65 12 11 -29 19
2 27 -23 9 -10 -42 38 -3
44 -8 -4 -36 -47 -54 -22 86
-40 27 -9 11 -52 -9 18 12
35 -55 38 -37 -56 19 -53 1
23 -12 43 -24 -44 -78 -33 -60
22 -2 32 7 52 -44 -33 -5
16 12 -18 -23 17 -25 -33 26
1 -51 -8 -15 -88 -57 3 -47
-19 -17 5 -16 -46 6 -15 -42
13 -105 25 14 -9 -28 -80 -30
0 -47 52 -30 27 -7 7 28
19 -40 17 -127 -58 -65 -43 -30
-41 98 -18 35 -10 63 -9 19
-14 30 -26 23 60 -12 -19 -16
8 -37 -4 -71 -12 -66 -32 4
-25 19 20 -33 -36 31 29 -24
20 2 21 67 23 -34 21 26
-31 1 0 2 -32 -27 53 -46
-81 -46 57 -31 2 -30 -44 -21
-21 -55 24 -29 -18 -24 -4 -51
-14 17 -23 -69 -40 -60 -1 -67
5 -5 11 52 25 3 -75 -60
-25 -17 11 -70 -22 -46 -39 59
16 -62 -25 -20 -5 -49 -78 -34
-2 -13 -7 18 -114 -22 -34 45
00000000: 98e2 ece4 39f2 2211 fec0 2022 a528 34fc
00000010: d415 e1e7 d6e3 9712 01e3 d013 02b9 211d
00000020: c9e3 1300 02a7 f004 fdac 591b f7d6 36c9
00000030: f4d4 ebbf 0c0b e313 021b e909 f6d6 26fd
00000040: 2cf8 fcdc d1ca ea56 d81b f70b ccf7 120c
00000050: 23c9 26db c813 cb01 17f4 2be8 d4b2 dfc4
00000060: 16fe 2007 34d4 dffb 100c eee9 11e7 df1a
00000070: 01cd f8f1 a8c7 03d1 edef 05f0 d206 f1d6
00000080: 0d97 190e f7e4 b0e2 00d1 34e2 1bf9 071c
00000090: 13d8 1181 c6bf d5e2 d762 ee23 f63f f713
000000a0: f21e e617 3cf4 edf0 08db fcb9 f4be e004
000000b0: e713 14df dc1f 1de8 1402 1543 17de 151a
000000c0: e101 0002 e0e5 35d2 afd2 39e1 02e2 d4eb
000000d0: ebc9 18e3 eee8 fccd f211 e9bb d8c4 ffbd
000000e0: 05fb 0b34 1903 b5c4 e7ef 0bba ead2 d93b
000000f0: 10c2 e7ec fbcf b2de fef3 f912 8eea de2d

sbb3/conv2/w i1 [64, 1, 3, 64]
-48 -17 -13 64 -44 24 -14 32
-57 -67 25 -23 -38 -13 76 2
21 35 -52 59 28 11 -67 97
-18 52 22 62 9 -4 -8 -32
-28 -2 -22 -15 21 -28 -23 -9
16 -36 -11 9 76 46 -25 -127
-54 39 51 13 36 -17 -5 42
-12 -12 52 21 39 25 11 26
-51 -13 24 4 -94 -9 41 51
36 -1 -15 81 -45 5 -73 62
8 21 -70 -60 -19 17 -46 -25
42 1 38 17 31 18 -21 -100
-5 -14 18 24 20 -43 -18 -1
-21 -81 -13 30 20 15 9 -39
-69 -22 -2 -13 -7 -34 -17 15
38 -37 -1 52 -13 6 112 36
47 -56 50 81 -37 -60 30 3
21 -26 8 124 -27 56 -6 36
10 -66 -32 -127 -33 -36 -117 0
33 5 -14 109 -98 -49 3 -86
-40 54 11 35 74 -34 10 -11
63 -27 -24 105 79 35 36 -10
-21 -56 47 -49 -9 -97 -23 78
64 -90 17 -36 17 -43 113 -11
13 -2 11 0 -37 11 51 -43
38 7 24 44 4 23 -29 27
-21 -9 -35 16 -18 -4 10 -28
-35 -29 -2 72 -56 -127 67 -4
26 42 12 44 43 18 10 -31
-7 2 -25 -3 5 18 8 -37
-41 43 58 11 -20 -7 59 2
-14 -3 22 43 74 67 -44 -16
00000000: d0ef f340 d418 f220 c7bd 19e9 daf3 4c02
00000010: 1523 cc3b 1c0b bd61 ee34 163e 09fc f8e0
00000020: e4fe eaf1 15e4 e9f7 10dc f509 4c2e e781
00000030: ca27 330d 24ef fb2a f4f4 3415 2719 0b1a
00000040: cdf3 1804 a2f7 2933 24ff f151 d305 b73e
00000050: 0815 bac4 ed11 d2e7 2a01 2611 1f12 eb9c
00000060: fbf2 1218 14d5 eeff ebaf f31e 140f 09d9
00000070: bbea fef3 f9de ef0f 26db ff34 f306 7024
00000080: 2fc8 3251 dbc4 1e03 15e6 087c e538 fa24
00000090: 0abe e081 dfdc 8b00 2105 f26d 9ecf 03aa
000000a0: d836 0b23 4ade 0af5 3fe5 e869 4f23 24f6
000000b0: ebc8 2fcf f79f e94e 40a6 11dc 11d5 71f5
000000c0: 0dfe 0b00 db0b 33d5 2607 182c 0417 e31b
000000d0: ebf7 dd10 eefc 0ae4 dde3 fe48 c881 43fc
000000e0: 1a2a 0c2c 2b12 0ae1 f902 e7fd 0512 08db
000000f0: d72b 3a0b ecf9 3b02 f2fd 162b 4a43 d4f0

sbb3/conv3/w i1 [64, 3, 1, 64]
-37 -12 30 8 27 -21 45 -67
40 71 -56 0 -32 -33 14 10
15 53 10 10 16 5 -1 -1
-13 -14 25 -20 -19 -24 -42 -31
3 0 60 -9 -15 0 -18 -38
-52 -72 21 16 48 68 17 -28
-16 -47 -35 -10 -12 27 51 -42
27 -8 -37 10 -14 -46 19 14
-16 -18 8 10 -33 -32 25 -30
26 28 -7 -24 5 20 21 1
-3 8 -13 -26 36 -17 -1 18
-15 15 32 -25 17 7 -36 -10
-22 -11 -4 2 3 -33 4 -23
-22 56 51 19 -9 18 22 6
21 -36 56 9 -19 40 15 -3
5 15 4 5 -27 -34 -23 12
-41 -7 12 20 -25 -50 23 -57
23 -9 -28 -6 14 -113 23 -92
-33 -54 11 -61 -21 -40 -7 21
22 -54 56 -35 -16 -51 -81 -20
-23 38 0 45 -28 -17 6 -18
37 13 -30 -28 -40 16 35 -57
6 -127 6 -19 25 -63 20 16
6 14 -37 73 -6 27 -15 15
34 34 -20 -1 -9 2 -35 -4
-45 -45 49 -16 -15 -35 52 11
67 -61 -20 -61 -9 28 -26 -55
39 -53 -21 -17 23 -21 -22 0
13 65 6 -1 -14 -11 -79 -18
-40 -4 18 11 14 -2 -72 -38
-18 -45 -17 21 -47 5 -18 41
25 -63 -5 6 -60 12 -61 -13
00000000: dbf4 1e08 1beb 2dbd 2847 c800 e0df 0e0a
00000010: 0f35 0a0a 1005 ffff f3f2 19ec ede8 d6e1
00000020: 0300 3cf7 f100 eeda ccb8 1510 3044 11e4
00000030: f0d1 ddf6 f41b 33d6 1bf8 db0a f2d2 130e
00000040: f0ee 080a dfe0 19e2 1a1c f9e8 0514 1501
00000050: fd08 f3e6 24ef ff12 f10f 20e7 1107 dcf6
00000060: eaf5 fc02 03df 04e9 ea38 3313 f712 1606
00000070: 15dc 3809 ed28 0ffd 050f 0405 e5de e90c
00000080: d7f9 0c14 e7ce 17c7 17f7 e4fa 0e8f 17a4
00000090: dfca 0bc3 ebd8 f915 16ca 38dd f0cd afec
000000a0: e926 002d e4ef 06ee 250d e2e4 d810 23c7
000000b0: 0681 06ed 19c1 1410 060e db49 fa1b f10f
000000c0: 2222 ecff f702 ddfc d3d3 31f0 f1dd 340b
000000d0: 43c3 ecc3 f71c e6c9 27cb ebef 17eb ea00
000000e0: 0d41 06ff f2f5 b1ee d8fc 120b 0efe b8da
000000f0: eed3 ef15 d105 ee29 19c1 fb06 c40c c3f3

sbb3/conv4/w i1 [256, 1, 1, 64]
-32 41 -78 -28 -33 -41 14 -60
16 -36 -88 -14 5 -40 -25 -60
-3 3 -38 20 -60 42 -8 49
8 -60 42 15 -37 -30 -44 -46
-23 27 -15 -44 29 -14 -40 -127
-55 3 -76 15 28 -58 28 -4
-45 4 -2 31 -13 3 -15 -14
3 -45 25 17 -62 -19 -12 -2
-75 -19 -18 -19 10 -12 -15 -32
-15 45 39 -41 -36 16 -21 -47
19 -12 9 45 5 -91 1 -39
29 -18 -61 -39 -28 61 -49 11
-59 -20 -127 -4 52 -74 -43 -51
-10 -20 27 23 -42 -1 16 54
23 -51 -45 -25 -79 -1 6 -11
9 -77 12 -60 -13 -24 -23 -20
-31 -46 -40 -1 -22 -37 -5 8
1 31 -39 -82 28 2 5 -23
10 -23 -35 5 -10 -50 -65 -9
39 -15 26 -16 34 29 6 34
23 -127 -56 -21 -6 -34 11 35
-26 -32 -24 4 -6 -102 41 14
14 -8 41 -24 15 23 29 -90
-22 11 -47 -57 3 -16 -8 -2
-4 26 15 -15 -38 8 -1 -15
-26 59 -22 -24 -23 12 15 28
-1 -1 2 -15 -11 15 22 12
15 -74 21 -32 -18 -6 -34 51
12 8 -63 -19 23 0 -127 -46
-9 -17 46 17 -35 -72 19 18
-8 10 -22 -62 20 -7 -11 17
-50 -51 -22 -35 25 -27 -37 -4
00000000: e029 b2e4 dfd7 0ec4 10dc a8f2 05d8 e7c4
00000010: fd03 da14 c42a f831 08c4 2a0f dbe2 d4d2
00000020: e91b f1d4 1df2 d881 c903 b40f 1cc6 1cfc
00000030: d304 fe1f f303 f1f2 03d3 1911 c2ed f4fe
00000040: b5ed eeed 0af4 f1e0 f12d 27d7 dc10 ebd1
00000050: 13f4 092d 05a5 01d9 1dee c3d9 e43d cf0b
00000060: c5ec 81fc 34b6 d5cd f6ec 1b17 d6ff 1036
00000070: 17cd d3e7 b1ff 06f5 09b3 0cc4 f3e8 e9ec
00000080: e1d2 d8ff eadb fb08 011f d9ae 1c02 05e9
00000090: 0ae9 dd05 f6ce bff7 27f1 1af0 221d 0622
000000a0: 1781 c8eb fade 0b23 e6e0 e804 fa9a 290e
000000b0: 0ef8 29e8 0f17 1da6 ea0b d1c7 03f0 f8fe
000000c0: fc1a 0ff1 da08 fff1 e63b eae8 e90c 0f1c
000000d0: ffff 02f1 f50f 160c 0fb6 15e0 eefa de33
000000e0: 0c08 c1ed 1700 81d2 f7ef 2e11 ddb8 1312
000000f0: f80a eac2 14f9 f511 cecd eadd 19e5 dbfc
