frigate/plate_detectors/alpr/LPRnet/weight/ocr_model_3_11.tflite (tflite, 586240 bytes, 18 tensors)

batch_normalization/FusedBatchNorm_add_param i1 [64] scale=0.04399285 zero_point=0
-0.2639571 0.7038856 1.9356854 1.495757 2.1996427 0.30794996 -5.587092 0.1759714
-0.7038856 -0.3519428 -0.04399285 0.57190704 0.7478785 2.3316212 1.6277355 0.4399285
2.991514 0.6158999 0.7038856 0.879857 3.827378 0.7918713 0.5279142 1.4077712
-0.0879857 0.6158999 -0.2639571 0.0879857 -0.0879857 0.21996425 0.48392135 -0.13197856
-1.187807 2.683564 -3.0355067 0.21996425 4.6192493 0.1759714 0.21996425 0.3519428
-0.30794996 0.0879857 1.4077712 0.4399285 0.21996425 0.13197856 1.9796783 2.1556497
0.30794996 0.30794996 -0.879857 0.5279142 0.0 1.0998213 1.6717284 3.3434567
0.0 0.9678427 2.4635997 0.2639571 0.2639571 0.7478785 0.13197856 2.2436354
00000000: fa10 2c22 3207 8104 f0f8 ff0d 1135 250a
00000010: 440e 1014 5712 0c20 fe0e fa02 fe05 0bfd
00000020: e53d bb05 6904 0508 f902 200a 0503 2d31
00000030: 0707 ec0c 0019 264c 0016 3806 0611 0333

batch_normalization/FusedBatchNorm_mul_0_param i1 [64] scale=0.0028958379 zero_point=0
0.06660427 0.08977097 0.049229246 0.060812596 0.06660427 0.07529178 0.09266681 0.060812596
0.12162519 0.07239595 0.12162519 0.08108346 0.0839793 0.17375027 0.10135432 0.07529178
0.36777142 0.060812596 0.09266681 0.09266681 0.28668794 0.107146 0.11583351 0.049229246
0.08108346 0.09845849 0.09266681 0.049229246 0.060812596 0.09266681 0.05502092 0.07239595
0.16506276 0.10425016 0.08977097 0.057916757 0.034750056 0.06660427 0.06370843 0.10425016
0.12741686 0.08687513 0.07529178 0.10425016 0.07818762 0.05502092 0.060812596 0.07239595
0.08687513 0.112937674 0.05502092 0.09845849 0.06950011 0.09266681 0.06950011 0.06370843
0.08687513 0.06660427 0.27800044 0.08108346 0.13320854 0.07239595 0.060812596 0.0839793
00000000: 171f 1115 171a 2015 2a19 2a1c 1d3c 231a
00000010: 7f15 2020 6325 2811 1c22 2011 1520 1319
00000020: 3924 1f14 0c17 1624 2c1e 1a24 1b13 1519
00000030: 1e27 1322 1820 1816 1e17 601c 2e19 151d

conv1/w i1 [64, 3, 3, 3]
-27 47 9 -22 53 19 -45 -54
4 4 42 -17 16 64 -22 -5
73 -22 8 -86 9 18 -127 27
53 -7 -8 10 -3 2 -14 -60
-5 -13 -44 3 -12 -43 -9 -12
-60 -19 -10 -31 -15 -4 35 -1
32 127 34 23 85 8 31 -44
-26 8 46 27 32 -3 -38 1
-67 20 -14 -127 44 1 -80 14
50 15 -19 37 29 4 57 8
-17 8 -12 -3 -53 -74 8 -50
-77 0 56 65 -9 -41 -42 -22
-55 -70 16 85 100 -12 85 127
38 -46 -18 -10 17 21 4 6
7 -8 -49 -127 6 6 27 -11
-14 17 -39 -78 -118 -5 6 -11
14 26 27 1 37 31 8 -17
10 1 -4 5 4 -4 3 -4
-127 -115 -53 16 18 10 2 0
-4 113 105 60 11 -10 -15 -2
-10 -2 13 -3 9 -57 23 23
27 0 -19 -33 25 22 127 -106
-71 -82 39 68 0 -1 7 -52
26 45 26 8 -25 -32 -80 -27
-37 -127 -56 -15 -99 -57 17 48
23 21 25 34 11 26 27 20
70 11 8 84 27 17 50 19
-21 6 -12 -31 -36 -2 -24 -3
-17 -19 -15 -5 112 127 120 -16
-19 -32 -29 -6 1 -32 -20 -5
-25 6 -14 13 -8 -22 9 12
4 -16 28 15 4 -19 -13 57
00000000: e52f 09ea 3513 d3ca 0404 2aef 1040 eafb
00000010: 49ea 08aa 0912 811b 35f9 f80a fd02 f2c4
00000020: fbf3 d403 f4d5 f7f4 c4ed f6e1 f1fc 23ff
00000030: 207f 2217 5508 1fd4 e608 2e1b 20fd da01
00000040: bd14 f281 2c01 b00e 320f ed25 1d04 3908
00000050: ef08 f4fd cbb6 08ce b300 3841 f7d7 d6ea
00000060: c9ba 1055 64f4 557f 26d2 eef6 1115 0406
00000070: 07f8 cf81 0606 1bf5 f211 d9b2 8afb 06f5
00000080: 0e1a 1b01 251f 08ef 0a01 fc05 04fc 03fc
00000090: 818d cb10 120a 0200 fc71 693c 0bf6 f1fe
000000a0: f6fe 0dfd 09c7 1717 1b00 eddf 1916 7f96
000000b0: b9ae 2744 00ff 07cc 1a2d 1a08 e7e0 b0e5
000000c0: db81 c8f1 9dc7 1130 1715 1922 0b1a 1b14
000000d0: 460b 0854 1b11 3213 eb06 f4e1 dcfe e8fd
000000e0: efed f1fb 707f 78f0 ede0 e3fa 01e0 ecfb
000000f0: e706 f20d f8ea 090c 04f0 1c0f 04ed f339

conv_d1/w i1 [256, 1, 4, 256]
14 -3 -8 2 7 17 -9 -1
-13 2 -64 3 4 18 -127 10
-17 2 7 1 -6 10 -5 -6
-11 -29 24 6 -23 0 11 11
-20 -70 -4 -33 -1 -21 -6 -28
-4 7 -10 -40 -21 -65 -13 10
-29 -29 10 -7 14 -7 -11 5
-34 9 26 -4 -9 25 -2 9
-5 -15 1 -1 -17 -17 4 -18
-21 3 0 11 15 8 22 22
2 7 4 -12 -1 -12 -15 28
2 5 -44 -13 18 -10 3 -54
9 -11 -3 13 5 10 -22 6
-1 -77 4 2 -1 -13 -26 6
-3 -8 -31 3 -9 -15 30 -17
-18 -4 13 -19 -40 10 27 -35
-35 -7 -8 -12 -45 2 6 2
12 -8 -13 2 -9 2 18 4
6 -18 -4 -21 -1 12 9 -25
-24 -11 -27 7 -3 -21 22 -37
10 -2 14 1 -6 -3 -59 -7
-12 -2 10 8 -32 -9 5 41
2 -26 26 43 13 -48 -57 17
-3 15 -28 13 -65 20 9 -18
-18 -3 7 -2 -24 -25 10 8
-48 10 -17 -29 7 3 -12 -2
-1 -47 -6 -8 2 -20 6 0
-12 17 9 19 -7 -40 -1 -3
18 -2 18 18 12 20 14 -13
-8 10 14 -3 -22 -7 6 22
-12 16 -2 -6 25 13 -1 -5
31 1 -14 -2 5 -1 14 5
00000000: 0efd f802 0711 f7ff f302 c003 0412 810a
00000010: ef02 0701 fa0a fbfa f5e3 1806 e900 0b0b
00000020: ecba fcdf ffeb fae4 fc07 f6d8 ebbf f30a
00000030: e3e3 0af9 0ef9 f505 de09 1afc f719 fe09
00000040: fbf1 01ff efef 04ee eb03 000b 0f08 1616
00000050: 0207 04f4 fff4 f11c 0205 d4f3 12f6 03ca
00000060: 09f5 fd0d 050a ea06 ffb3 0402 fff3 e606
00000070: fdf8 e103 f7f1 1eef eefc 0ded d80a 1bdd
00000080: ddf9 f8f4 d302 0602 0cf8 f302 f702 1204
00000090: 06ee fceb ff0c 09e7 e8f5 e507 fdeb 16db
000000a0: 0afe 0e01 fafd c5f9 f4fe 0a08 e0f7 0529
000000b0: 02e6 1a2b 0dd0 c711 fd0f e40d bf14 09ee
000000c0: eefd 07fe e8e7 0a08 d00a efe3 0703 f4fe
000000d0: ffd1 faf8 02ec 0600 f411 0913 f9d8 fffd
000000e0: 12fe 1212 0c14 0ef3 f80a 0efd eaf9 0616
000000f0: f410 fefa 190d fffb 1f01 f2fe 05ff 0e05

conv_d2/w i1 [35, 13, 1, 256]
7 -16 23 8 -11 0 -12 -58
-27 11 -13 7 12 -3 1 -17
2 -49 4 8 55 35 30 -10
22 -8 -14 14 23 1 17 -7
23 -21 -25 28 -27 19 15 -9
12 3 -21 -41 20 -49 -12 21
-20 -32 33 -22 4 -27 3 -35
10 39 -7 -127 -10 1 -13 -13
-15 -6 -12 -7 14 8 -28 -4
10 35 -11 -11 -32 -30 -28 -19
-24 15 -22 -37 -42 37 -18 13
-33 10 17 -63 -5 -17 -48 10
-9 -10 10 33 -17 36 -17 25
-9 -4 -3 -18 -44 -15 12 5
9 -20 4 -53 39 15 16 15
-22 -4 -16 -8 -20 21 -8 10
-53 10 29 3 -5 -21 16 -39
-17 -10 18 -9 -25 -35 -52 -13
-6 -1 -2 16 -21 20 17 -14
-34 -34 -33 2 -14 -17 4 13
-2 8 -59 -20 -1 -25 -12 -35
-21 -16 -43 1 23 5 4 -22
17 -30 8 -12 -90 14 8 -24
-6 -7 -5 -9 -15 40 5 -66
-7 0 -27 2 29 -5 -21 -55
-12 6 -64 17 -3 -48 11 -29
53 0 -38 -58 -3 -1 9 2
-73 -42 17 32 -14 -61 6 3
-35 -39 25 -3 11 25 -14 0
3 19 -44 -16 -10 4 -27 -19
9 -12 -10 -6 13 -10 14 1
-6 -17 1 -23 -47 9 1 46
00000000: 07f0 1708 f500 f4c6 e50b f307 0cfd 01ef
00000010: 02cf 0408 3723 1ef6 16f8 f20e 1701 11f9
00000020: 17eb e71c e513 0ff7 0c03 ebd7 14cf f415
00000030: ece0 21ea 04e5 03dd 0a27 f981 f601 f3f3
00000040: f1fa f4f9 0e08 e4fc 0a23 f5f5 e0e2 e4ed
00000050: e80f eadb d625 ee0d df0a 11c1 fbef d00a
00000060: f7f6 0a21 ef24 ef19 f7fc fdee d4f1 0c05
00000070: 09ec 04cb 270f 100f eafc f0f8 ec15 f80a
00000080: cb0a 1d03 fbeb 10d9 eff6 12f7 e7dd ccf3
00000090: faff fe10 eb14 11f2 dede df02 f2ef 040d
000000a0: fe08 c5ec ffe7 f4dd ebf0 d501 1705 04ea
000000b0: 11e2 08f4 a60e 08e8 faf9 fbf7 f128 05be
000000c0: f900 e502 1dfb ebc9 f406 c011 fdd0 0be3
000000d0: 3500 dac6 fdff 0902 b7d6 1120 f2c3 0603
000000e0: ddd9 19fd 0b19 f200 0313 d4f0 f604 e5ed
000000f0: 09f4 f6fa 0df6 0e01 faef 01e9 d109 012e

conv_out/w i1 [35, 1, 1, 483]
-68 20 121 -52 32 7 -30 14
-107 4 76 75 49 32 24 -16
25 -109 30 54 32 36 61 -117
-26 92 6 -15 -127 -4 81 15
41 34 29 47 43 -8 -19 -29
-17 -11 46 -18 -15 -80 -90 -10
-10 105 -61 65 2 70 15 45
-62 114 22 -38 38 4 100 23
-12 -3 -25 7 18 1 -10 5
-29 19 -14 1 -17 -9 -7 18
12 -21 -8 -21 -23 -25 24 -3
17 -8 -10 3 -19 10 -13 9
-2 -5 15 15 30 14 -21 -16
5 16 0 5 -23 5 6 -15
-6 0 12 51 -3 -9 -6 -10
-9 -6 -7 -27 -3 19 18 -13
14 8 -5 -11 -18 6 -2 1
6 20 -6 -19 -21 4 -2 11
-11 -23 9 -7 -2 -10 18 -27
6 16 -13 -3 6 -6 -4 8
-7 31 -9 -6 13 6 17 -1
5 1 9 -3 0 -14 -2 -18
1 3 -16 -6 -25 0 14 -1
-9 -28 3 15 2 -10 -16 0
-14 14 6 -6 0 4 -26 17
-44 20 -33 -27 -24 9 -1 -35
-35 18 -22 0 21 -3 9 -20
-30 20 -22 -49 2 -31 8 -28
5 -29 -19 31 2 -21 -9 -25
17 -1 -38 -46 1 -32 -2 2
-16 13 -7 -7 -16 -11 -21 -1
-41 26 -8 -55 -15 -2 19 39
00000000: bc14 79cc 2007 e20e 9504 4c4b 3120 18f0
00000010: 1993 1e36 2024 3d8b e65c 06f1 81fc 510f
00000020: 2922 1d2f 2bf8 ede3 eff5 2eee f1b0 a6f6
00000030: f669 c341 0246 0f2d c272 16da 2604 6417
00000040: f4fd e707 1201 f605 e313 f201 eff7 f912
00000050: 0ceb f8eb e9e7 18fd 11f8 f603 ed0a f309
00000060: fefb 0f0f 1e0e ebf0 0510 0005 e905 06f1
00000070: fa00 0c33 fdf7 faf6 f7fa f9e5 fd13 12f3
00000080: 0e08 fbf5 ee06 fe01 0614 faed eb04 fe0b
00000090: f5e9 09f9 fef6 12e5 0610 f3fd 06fa fc08
000000a0: f91f f7fa 0d06 11ff 0501 09fd 00f2 feee
000000b0: 0103 f0fa e700 0eff f7e4 030f 02f6 f000
000000c0: f20e 06fa 0004 e611 d414 dfe5 e809 ffdd
000000d0: dd12 ea00 15fd 09ec e214 eacf 02e1 08e4
000000e0: 05e3 ed1f 02eb f7e7 11ff dad2 01e0 fe02
000000f0: f00d f9f9 f0f5 ebff d71a f8c9 f1fe 1327

sbb1/conv1/w i1 [32, 1, 1, 64]
20 2 -15 -28 -6 -12 7 1
-18 31 18 -17 52 -15 31 6
5 -45 32 14 35 6 0 34
9 -15 -13 -19 -23 62 5 28
-4 18 60 17 127 30 -10 5
6 -7 16 -16 -14 -69 9 35
-74 -3 9 11 41 25 -18 32
-47 13 64 5 -12 13 -7 -1
-11 74 46 -17 -2 -16 5 72
-53 -127 -21 -20 0 -100 -33 -30
-47 12 -55 14 -23 24 -11 59
21 7 -55 19 -34 -45 32 -14
-47 -31 1 108 54 16 -65 40
-20 -59 11 72 32 -23 40 60
45 -21 -34 11 33 10 40 2
-111 -44 44 2 -71 -34 18 -105
46 25 17 62 16 -31 -43 25
43 -39 -65 -31 16 41 66 127
21 -20 -14 -18 5 76 96 -18
94 -34 8 -57 10 16 49 -23
6 1 2 -10 123 66 68 -59
-16 104 -22 43 73 -51 -22 -72
3 -12 -34 -28 0 -3 -3 -3
16 57 17 1 10 70 -64 -2
17 -11 -13 -18 -28 5 3 -2
1 -2 -2 -2 11 -10 -7 13
-45 6 -27 0 -12 7 -3 0
2 -10 -12 12 -3 11 16 16
-8 -2 -9 -1 38 -7 -61 0
-127 -8 20 8 -7 7 7 18
17 -8 -4 -6 8 24 18 21
10 -34 16 14 5 11 39 -6
00000000: 1402 f1e4 faf4 0701 ee1f 12ef 34f1 1f06
00000010: 05d3 200e 2306 0022 09f1 f3ed e93e 051c
00000020: fc12 3c11 7f1e f605 06f9 10f0 f2bb 0923
00000030: b6fd 090b 2919 ee20 d10d 4005 f40d f9ff
00000040: f54a 2eef fef0 0548 cb81 ebec 009c dfe2
00000050: d10c c90e e918 f53b 1507 c913 ded3 20f2
00000060: d1e1 016c 3610 bf28 ecc5 0b48 20e9 283c
00000070: 2deb de0b 210a 2802 91d4 2c02 b9de 1297
00000080: 2e19 113e 10e1 d519 2bd9 bfe1 1029 427f
00000090: 15ec f2ee 054c 60ee 5ede 08c7 0a10 31e9
000000a0: 0601 02f6 7b42 44c5 f068 ea2b 49cd eab8
000000b0: 03f4 dee4 00fd fdfd 1039 1101 0a46 c0fe
000000c0: 11f5 f3ee e405 03fe 01fe fefe 0bf6 f90d
000000d0: d306 e500 f407 fd00 02f6 f40c fd0b 1010
000000e0: f8fe f7ff 26f9 c300 81f8 1408 f907 0712
000000f0: 11f8 fcfa 0818 1215 0ade 100e 050b 27fa

sbb1/conv2/w i1 [32, 1, 3, 32]
33 6 26 -17 -16 -13 -40 127
16 73 -3 -79 -18 24 29 -25
-69 16 5 -32 12 -9 -21 26
11 22 30 56 6 11 -8 -5
65 -11 -16 35 -90 -29 30 -11
-17 -18 21 24 8 -14 3 -59
21 19 -1 49 36 -18 30 -36
-21 -6 12 -3 6 -3 93 11
-32 3 -4 -22 78 0 19 -127
13 -48 25 -32 -18 -61 -4 74
-12 -54 20 25 -14 -48 -41 -61
-20 -2 -70 15 -9 12 -10 57
45 -38 20 -4 5 -65 95 -31
42 14 13 18 6 2 -32 20
-61 -38 14 -14 -1 11 9 3
-19 -19 44 -15 54 19 -29 0
-73 -43 -93 127 95 -16 -16 -33
-2 8 11 -59 88 -61 -80 15
-86 -42 -18 -24 28 -13 -36 -54
53 -4 0 44 27 -11 -7 33
27 35 51 -6 -12 -56 15 4
19 2 -9 -100 -1 48 25 40
0 13 -10 -15 10 -15 23 -32
-15 -12 15 21 -25 -10 24 -3
-28 17 -23 32 59 28 1 -51
9 -18 17 50 35 0 -48 -8
31 -39 -39 24 -10 57 -11 14
42 54 -44 20 9 -7 48 -24
-80 14 -17 -33 83 -23 -50 51
-2 11 9 22 -28 7 -28 98
48 22 63 -9 95 23 8 -10
127 22 18 81 42 -21 -47 21
00000000: 2106 1aef f0f3 d87f 1049 fdb1 ee18 1de7
00000010: bb10 05e0 0cf7 eb1a 0b16 1e38 060b f8fb
00000020: 41f5 f023 a6e3 1ef5 efee 1518 08f2 03c5
00000030: 1513 ff31 24ee 1edc ebfa 0cfd 06fd 5d0b
00000040: e003 fcea 4e00 1381 0dd0 19e0 eec3 fc4a
00000050: f4ca 1419 f2d0 d7c3 ecfe ba0f f70c f639
00000060: 2dda 14fc 05bf 5fe1 2a0e 0d12 0602 e014
00000070: c3da 0ef2 ff0b 0903 eded 2cf1 3613 e300
00000080: b7d5 a37f 5ff0 f0df fe08 0bc5 58c3 b00f
00000090: aad6 eee8 1cf3 dcca 35fc 002c 1bf5 f921
000000a0: 1b23 33fa f4c8 0f04 1302 f79c ff30 1928
000000b0: 000d f6f1 0af1 17e0 f1f4 0f15 e7f6 18fd
000000c0: e411 e920 3b1c 01cd 09ee 1132 2300 d0f8
000000d0: 1fd9 d918 f639 f50e 2a36 d414 09f9 30e8
000000e0: b00e efdf 53e9 ce33 fe0b 0916 e407 e462
000000f0: 3016 3ff7 5f17 08f6 7f16 1251 2aeb d115

sbb1/conv3/w i1 [32, 3, 1, 32]
12 -78 -7 11 81 -31 -15 -61
38 -16 -4 52 -45 16 83 29
9 -8 7 7 -4 33 11 70
-32 37 -4 10 29 65 -22 -19
36 46 -75 20 13 9 -33 22
-18 -12 -13 68 -43 19 127 74
-43 1 -11 28 -127 23 36 -3
-42 51 -7 0 29 -61 -75 35
36 44 -4 61 -68 -15 -16 63
59 -19 21 -43 28 -31 26 -5
16 11 36 -43 -45 4 6 14
76 -29 -27 -35 -33 48 -16 29
-26 -22 13 72 -42 -2 -11 74
-60 6 -40 16 2 63 -46 11
-48 -127 87 21 -39 74 3 -17
-11 31 -62 10 52 -9 -30 27
8 55 -18 116 -6 31 22 32
-9 30 29 13 -31 75 4 47
14 -21 23 74 -68 -18 -40 -62
49 37 -18 -21 63 -80 -38 7
-11 41 15 -64 62 -2 2 -4
88 -24 28 -16 -12 -13 33 -7
71 50 -11 -14 7 -40 -51 -14
25 26 118 18 -3 27 6 -21
7 67 71 -14 -6 0 35 11
24 69 8 67 -72 -1 56 5
41 56 -31 25 -21 -16 -38 -58
-38 -38 79 -69 2 -29 13 -27
-2 90 37 -9 -4 -3 -12 31
-23 127 -66 8 9 -32 -6 34
-8 24 -92 32 -14 4 47 -36
27 -71 -16 10 5 -21 21 -19
00000000: 0cb2 f90b 51e1 f1c3 26f0 fc34 d310 531d
00000010: 09f8 0707 fc21 0b46 e025 fc0a 1d41 eaed
00000020: 242e b514 0d09 df16 eef4 f344 d513 7f4a
00000030: d501 f51c 8117 24fd d633 f900 1dc3 b523
00000040: 242c fc3d bcf1 f03f 3bed 15d5 1ce1 1afb
00000050: 100b 24d5 d304 060e 4ce3 e5dd df30 f01d
00000060: e6ea 0d48 d6fe f54a c406 d810 023f d20b
00000070: d081 5715 d94a 03ef f51f c20a 34f7 e21b
00000080: 0837 ee74 fa1f 1620 f71e 1d0d e14b 042f
00000090: 0eeb 174a bcee d8c2 3125 eeeb 3fb0 da07
000000a0: f529 0fc0 3efe 02fc 58e8 1cf0 f4f3 21f9
000000b0: 4732 f5f2 07d8 cdf2 191a 7612 fd1b 06eb
000000c0: 0743 47f2 fa00 230b 1845 0843 b8ff 3805
000000d0: 2938 e119 ebf0 dac6 dada 4fbb 02e3 0de5
000000e0: fe5a 25f7 fcfd f41f e97f be08 09e0 fa22
000000f0: f818 a420 f204 2fdc 1bb9 f00a 05eb 15ed

sbb1/conv4/w i1 [128, 1, 1, 32]
37 -2 -18 -1 -42 2 3 -47
-70 -48 -36 -49 -16 -109 3 -79
15 -29 -6 -16 43 40 -17 62
127 0 28 9 0 -16 -56 39
-8 20 33 -127 -63 -22 43 6
-9 -11 37 -73 -9 -48 -76 23
14 -35 7 -12 -18 -31 3 -26
-44 -37 -34 -4 58 22 -1 -3
28 -50 -88 -127 -24 -66 49 -73
36 -27 -65 -60 46 1 42 -77
-67 75 6 -74 16 54 -6 49
-12 -42 8 -17 -47 -19 23 -63
23 24 -68 48 -120 -85 31 69
-32 106 -110 -39 -44 -27 -123 8
53 -40 -127 39 -43 -41 67 24
-15 -70 -124 16 -36 111 62 -35
-57 -47 -28 -81 -15 -101 50 -12
-3 43 -49 -86 14 1 -45 -5
1 60 -47 82 27 26 -23 10
-20 -127 82 -42 21 26 -116 -42
-71 74 -17 -11 -34 -49 -11 42
39 1 2 63 127 -49 16 -49
54 -26 -13 -77 -58 56 -110 35
-83 -17 -79 -81 -42 -82 -36 -77
-71 19 -78 -43 -68 -69 -24 -50
-5 -55 -92 -10 -22 24 -25 66
53 14 -53 38 -38 9 -78 7
25 58 -33 40 127 113 -83 53
-29 52 -35 -31 20 -54 -81 -69
39 -81 37 -69 31 -32 9 -23
45 -60 -110 -29 -17 82 -73 -27
-12 42 -8 -10 46 127 -9 52
00000000: 25fe eeff d602 03d1 bad0 dccf f093 03b1
00000010: 0fe3 faf0 2b28 ef3e 7f00 1c09 00f0 c827
00000020: f814 2181 c1ea 2b06 f7f5 25b7 f7d0 b417
00000030: 0edd 07f4 eee1 03e6 d4db defc 3a16 fffd
00000040: 1cce a881 e8be 31b7 24e5 bfc4 2e01 2ab3
00000050: bd4b 06b6 1036 fa31 f4d6 08ef d1ed 17c1
00000060: 1718 bc30 88ab 1f45 e06a 92d9 d4e5 8508
00000070: 35d8 8127 d5d7 4318 f1ba 8410 dc6f 3edd
00000080: c7d1 e4af f19b 32f4 fd2b cfaa 0e01 d3fb
00000090: 013c d152 1b1a e90a ec81 52d6 151a 8cd6
000000a0: b94a eff5 decf f52a 2701 023f 7fcf 10cf
000000b0: 36e6 f3b3 c638 9223 adef b1af d6ae dcb3
000000c0: b913 b2d5 bcbb e8ce fbc9 a4f6 ea18 e742
000000d0: 350e cb26 da09 b207 193a df28 7f71 ad35
000000e0: e334 dde1 14ca afbb 27af 25bb 1fe0 09e9
000000f0: 2dc4 92e3 ef52 b7e5 f42a f8f6 2e7f f734

sbb2/conv1/w i1 [64, 1, 1, 128]
-4 61 -90 -65 -39 27 -39 114
91 -51 -33 32 -60 -58 -60 -63
29 -30 -39 -67 77 49 38 55
-84 6 -14 24 66 -57 103 36
-11 79 93 -47 43 -18 9 14
-7 -49 -23 43 -32 -5 -125 -11
-112 10 -19 -68 -52 74 -58 -31
-127 36 -42 45 -125 -35 119 47
-65 -27 93 23 -25 -112 -31 -5
15 -69 8 -4 -1 55 -51 62
72 -59 -47 -64 -90 -4 31 -5
26 -24 -6 18 -47 -93 46 78
-10 -13 -18 1 -43 21 48 45
5 6 27 -28 -6 62 11 -1
-17 90 -6 8 -37 -7 -29 -49
-64 -35 -32 -37 -29 -85 36 108
7 -96 18 -80 -10 86 -19 39
12 -22 69 52 -1 61 4 -4
-38 14 39 -31 -45 -45 20 -16
22 42 -42 -40 -72 73 47 -16
1 29 17 -24 44 -11 -39 -9
-40 -6 10 -31 -22 33 21 -5
12 -7 -19 -16 8 7 28 -13
-39 41 -75 -57 72 30 1 6
-16 4 -4 23 -41 16 9 -52
74 1 -18 -5 -3 15 -6 -11
-53 -11 -28 10 -38 33 24 -5
51 73 23 -55 -46 -29 -2 -73
-40 -101 39 -46 -20 -36 -22 -23
-15 -14 -18 5 0 19 21 -127
-9 -4 3 1 -24 1 22 7
19 -33 -4 10 -72 -16 31 47
00000000: fc3d a6bf d91b d972 5bcd df20 c4c6 c4c1
00000010: 1de2 d9bd 4d31 2637 ac06 f218 42c7 6724
00000020: f54f 5dd1 2bee 090e f9cf e92b e0fb 83f5
00000030: 900a edbc cc4a c6e1 8124 d62d 83dd 772f
00000040: bfe5 5d17 e790 e1fb 0fbb 08fc ff37 cd3e
00000050: 48c5 d1c0 a6fc 1ffb 1ae8 fa12 d1a3 2e4e
00000060: f6f3 ee01 d515 302d 0506 1be4 fa3e 0bff
00000070: ef5a fa08 dbf9 e3cf c0dd e0db e3ab 246c
00000080: 07a0 12b0 f656 ed27 0cea 4534 ff3d 04fc
00000090: da0e 27e1 d3d3 14f0 162a d6d8 b849 2ff0
000000a0: 011d 11e8 2cf5 d9f7 d8fa 0ae1 ea21 15fb
000000b0: 0cf9 edf0 0807 1cf3 d929 b5c7 481e 0106
000000c0: f004 fc17 d710 09cc 4a01 eefb fd0f faf5
000000d0: cbf5 e40a da21 18fb 3349 17c9 d2e3 feb7
000000e0: d89b 27d2 ecdc eae9 f1f2 ee05 0013 1581
000000f0: f7fc 0301 e801 1607 13df fc0a b8f0 1f2f

sbb2/conv2/w i1 [64, 1, 3, 64]
-41 35 -28 9 26 22 10 26
-10 -3 10 -2 28 14 -122 13
-33 -88 25 15 -3 24 -46 55
7 -34 2 -4 31 38 -16 9
-14 21 -37 5 -14 72 6 -36
18 36 22 9 -13 12 -13 7
-45 -17 15 4 27 -5 23 0
-47 -14 5 9 25 -4 -41 11
-22 54 -12 -11 22 -70 -11 -22
2 -26 -18 -44 14 6 -38 0
19 18 -2 -17 -7 50 56 -69
7 16 29 19 -32 -19 -40 28
-7 7 -2 -25 -60 85 28 39
-31 -7 1 -36 -127 -29 4 8
36 32 32 2 1 -60 -8 -18
-24 25 -30 -24 29 -35 5 -2
-8 -27 -13 16 -27 -15 -8 14
-1 27 -15 0 -53 7 18 10
-2 64 -76 0 -14 -8 28 -19
9 36 -10 2 -11 -15 -1 -5
24 -34 -18 -31 40 52 7 37
11 -27 -6 5 14 6 21 17
35 13 -67 -7 -18 30 18 30
23 -6 -23 -66 -3 -15 11 -12
17 -20 -34 16 54 11 -3 -42
-7 -32 -16 -20 9 -8 -57 -14
-74 35 -11 6 -18 49 72 -24
13 14 -5 -19 24 0 -4 33
27 86 -51 37 -1 -33 3 9
-4 -26 -5 6 1 33 -9 -11
14 56 29 14 27 -3 -19 -51
12 0 -22 -11 -7 -36 -4 -19
00000000: d723 e409 1a16 0a1a f6fd 0afe 1c0e 860d
00000010: dfa8 190f fd18 d237 07de 02fc 1f26 f009
00000020: f215 db05 f248 06dc 1224 1609 f30c f307
00000030: d3ef 0f04 1bfb 1700 d1f2 0509 19fc d70b
00000040: ea36 f4f5 16ba f5ea 02e6 eed4 0e06 da00
00000050: 1312 feef f932 38bb 0710 1d13 e0ed d81c
00000060: f907 fee7 c455 1c27 e1f9 01dc 81e3 0408
00000070: 2420 2002 01c4 f8ee e819 e2e8 1ddd 05fe
00000080: f8e5 f310 e5f1 f80e ff1b f100 cb07 120a
00000090: fe40 b400 f2f8 1ced 0924 f602 f5f1 fffb
000000a0: 18de eee1 2834 0725 0be5 fa05 0e06 1511
000000b0: 230d bdf9 ee1e 121e 17fa e9be fdf1 0bf4
000000c0: 11ec de10 360b fdd6 f9e0 f0ec 09f8 c7f2
000000d0: b623 f506 ee31 48e8 0d0e fbed 1800 fc21
000000e0: 1b56 cd25 ffdf 0309 fce6 fb06 0121 f7f5
000000f0: 0e38 1d0e 1bfd edcd 0c00 eaf5 f9dc fced

sbb2/conv3/w i1 [64, 3, 1, 64]
-37 -21 -110 16 42 64 13 -25
-6 -40 57 18 22 28 35 5
23 32 10 -80 -45 48 -33 30
-69 -24 5 -7 -47 -84 14 36
-34 61 60 1 -8 19 64 -127
-31 39 11 -45 -91 63 -13 67
-44 -32 72 -10 -10 -2 46 29
16 7 -23 -74 -81 48 -52 -2
31 43 66 6 86 2 3 -39
16 55 -56 18 -77 2 -32 45
11 -29 30 -22 51 -10 -9 4
-9 -23 -95 -11 34 49 2 -22
-22 23 8 51 -12 13 40 6
0 3 58 1 54 -9 30 66
58 62 18 -24 36 29 -31 -33
-39 -15 16 24 52 -9 -77 -3
2 -20 -27 -10 -35 -18 61 4
0 67 28 22 17 -34 42 -80
11 -38 38 14 4 -20 14 10
-5 -50 -37 68 1 11 -76 -56
58 -79 0 -15 2 -60 -72 47
62 -2 -27 1 64 -55 1 -52
69 -64 -26 -24 -103 42 19 13
-21 33 10 -33 25 -55 21 -56
-36 -9 117 -18 -5 116 -2 -98
-31 65 -13 -27 -46 28 -16 -60
-20 -57 -64 30 11 8 -11 -119
97 11 -34 3 -63 24 -51 11
-49 -14 10 -42 -8 -46 -91 25
-4 -11 -16 -34 59 -31 -25 12
14 -16 1 57 -105 24 -25 -74
32 -48 127 -15 23 -7 -13 -89
00000000: dbeb 9210 2a40 0de7 fad8 3912 161c 2305
00000010: 1720 0ab0 d330 df1e bbe8 05f9 d1ac 0e24
00000020: de3d 3c01 f813 4081 e127 0bd3 a53f f343
00000030: d4e0 48f6 f6fe 2e1d 1007 e9b6 af30 ccfe
00000040: 1f2b 4206 5602 03d9 1037 c812 b302 e02d
00000050: 0be3 1eea 33f6 f704 f7e9 a1f5 2231 02ea
00000060: ea17 0833 f40d 2806 0003 3a01 36f7 1e42
00000070: 3a3e 12e8 241d e1df d9f1 1018 34f7 b3fd
00000080: 02ec e5f6 ddee 3d04 0043 1c16 11de 2ab0
00000090: 0bda 260e 04ec 0e0a fbce db44 010b b4c8
000000a0: 3ab1 00f1 02c4 b82f 3efe e501 40c9 01cc
000000b0: 45c0 e6e8 992a 130d eb21 0adf 19c9 15c8
000000c0: dcf7 75ee fb74 fe9e e141 f3e5 d21c f0c4
000000d0: ecc7 c01e 0b08 f589 610b de03 c118 cd0b
000000e0: cff2 0ad6 f8d2 a519 fcf5 f0de 3be1 e70c
000000f0: 0ef0 0139 9718 e7b6 20d0 7ff1 17f9 f3a7

sbb2/conv4/w i1 [256, 1, 1, 64]
41 -61 23 -65 -41 -27 -12 28
-109 25 46 0 -66 -59 15 -31
-9 5 -10 -83 7 97 -67 -95
-50 -49 44 127 -50 -29 8 -31
-1 44 82 50 0 -1 -70 -77
-5 -78 -28 54 -98 -59 11 -2
-61 -104 26 -41 -3 -60 -2 -32
-48 -18 -15 20 54 61 -125 -99
-87 -14 -31 -34 -13 9 1 31
2 49 28 -93 -9 -42 -28 -80
7 -7 49 -99 24 -25 -12 -127
-58 -92 61 -12 19 -60 37 8
15 -104 -36 -22 30 -31 -49 -63
-24 50 -20 66 -29 -35 6 -5
48 -35 -44 -47 31 -31 -17 8
-10 -14 5 -8 4 -55 18 37
-42 -39 -27 21 51 -3 -49 -31
46 -28 1 -2 -49 -19 38 62
-56 -19 -27 3 -41 22 -118 -127
2 -85 -34 3 8 -22 61 -43
36 26 -27 -1 -53 0 -69 -12
-25 98 50 -34 21 -27 -17 -41
-7 67 -15 38 -50 -46 62 4
-23 -55 -8 -7 -8 -52 -40 -44
-96 7 70 -108 -73 -49 -105 0
-62 2 23 -127 -5 -84 104 40
-22 8 -63 -18 -38 -26 28 -30
18 2 -120 13 73 59 28 -34
2 21 39 -15 23 -4 -6 71
-46 -50 27 -45 34 65 -36 -11
-49 10 26 -10 43 5 8 -86
1 40 -45 -78 49 54 -19 -13
00000000: 29c3 17bf d7e5 f41c 9319 2e00 bec5 0fe1
00000010: f705 f6ad 0761 bda1 cecf 2c7f cee3 08e1
00000020: ff2c 5232 00ff bab3 fbb2 e436 9ec5 0bfe
00000030: c398 1ad7 fdc4 fee0 d0ee f114 363d 839d
00000040: a9f2 e1de f309 011f 0231 1ca3 f7d6 e4b0
00000050: 07f9 319d 18e7 f481 c6a4 3df4 13c4 2508
00000060: 0f98 dcea 1ee1 cfc1 e832 ec42 e3dd 06fb
00000070: 30dd d4d1 1fe1 ef08 f6f2 05f8 04c9 1225
00000080: d6d9 e515 33fd cfe1 2ee4 01fe cfed 263e
00000090: c8ed e503 d716 8a81 02ab de03 08ea 3dd5
000000a0: 241a e5ff cb00 bbf4 e762 32de 15e5 efd7
000000b0: f943 f126 ced2 3e04 e9c9 f8f9 f8cc d8d4
000000c0: a007 4694 b7cf 9700 c202 1781 fbac 6828
000000d0: ea08 c1ee dae6 1ce2 1202 880d 493b 1cde
000000e0: 0215 27f1 17fc fa47 d2ce 1bd3 2241 dcf5
000000f0: cf0a 1af6 2b05 08aa 0128 d3b2 3136 edf3

sbb3/conv1/w i1 [64, 1, 1, 256]
28 20 -52 19 -16 43 -9 -16
-17 -21 -13 -9 -43 -38 20 -104
-5 22 -36 72 56 72 -8 -6
-28 12 -24 31 -34 33 -41 49
-22 11 59 -42 -47 1 1 6
-32 26 44 -85 102 -10 -46 -31
0 17 -26 -13 37 -5 -36 -19
29 2 -3 -56 -15 -46 -24 -16
-64 -19 8 -10 -71 37 37 27
21 -93 -15 -25 -11 -24 13 -44
-50 -16 -81 -20 -6 41 -31 -36
24 3 49 11 -5 -45 -7 -38
-13 -34 4 0 -32 14 40 33
-112 16 -122 -17 12 14 38 11
-61 24 49 -25 -25 46 52 63
-27 6 -27 -21 28 -2 8 -39
-18 28 -19 -40 28 -40 70 29
-50 -24 0 -38 -55 35 -67 36
27 28 -12 0 21 -57 -10 27
-33 -5 11 -16 26 9 -46 -28
-6 -42 24 -32 0 41 -66 -53
13 -7 38 -54 -9 -48 36 -14
-23 -29 -50 45 -25 -48 51 -8
-127 14 -25 46 -75 56 32 -28
-15 9 -93 -21 -75 19 -27 56
-115 -44 24 -84 84 19 15 -5
7 32 -34 35 -126 -1 -23 -42
36 -4 67 34 -11 75 -16 19
67 -29 84 36 -59 53 -11 21
77 -50 55 -31 27 -11 -22 -2
36 -25 -59 -21 -20 70 4 34
-76 -23 9 -9 20 60 -8 77
00000000: 1c14 cc13 f02b f7f0 efeb f3f7 d5da 1498
00000010: fb16 dc48 3848 f8fa e40c e81f de21 d731
00000020: ea0b 3bd6 d101 0106 e01a 2cab 66f6 d2e1
00000030: 0011 e6f3 25fb dced 1d02 fdc8 f1d2 e8f0
00000040: c0ed 08f6 b925 251b 15a3 f1e7 f5e8 0dd4
00000050: cef0 afec fa29 e1dc 1803 310b fbd3 f9da
00000060: f3de 0400 e00e 2821 9010 86ef 0c0e 260b
00000070: c318 31e7 e72e 343f e506 e5eb 1cfe 08d9
00000080: ee1c edd8 1cd8 461d cee8 00da c923 bd24
00000090: 1b1c f400 15c7 f61b dffb 0bf0 1a09 d2e4
000000a0: fad6 18e0 0029 becb 0df9 26ca f7d0 24f2
000000b0: e9e3 ce2d e7d0 33f8 810e e72e b538 20e4
000000c0: f109 a3eb b513 e538 8dd4 18ac 5413 0ffb
000000d0: 0720 de23 82ff e9d6 24fc 4322 f54b f013
000000e0: 43e3 5424 c535 f515 4dce 37e1 1bf5 eafe
000000f0: 24e7 c5eb ec46 0422 b4e9 09f7 143c f84d

sbb3/conv2/w i1 [64, 1, 3, 64]
-28 -127 -29 97 24 14 -4 -41
1 83 7 71 -56 -40 -26 -39
-67 -18 -11 -13 4 -22 -12 45
-50 29 15 25 -14 85 -17 57
34 -20 0 -48 -10 -19 2 -68
32 0 -28 17 7 72 -30 -31
21 1 -50 6 -9 28 -44 -21
11 -25 61 -28 19 3 14 -63
-23 -41 -23 -23 37 -52 45 13
-90 6 -28 57 -40 -1 55 -44
100 -30 -50 -20 -8 -86 -27 -8
-34 -27 -11 17 24 -42 -5 39
-18 17 -29 22 20 -49 6 -104
-37 10 14 48 -78 -15 -36 21
80 19 -89 -41 2 -68 -33 -28
4 8 -2 33 17 36 74 -37
19 8 -37 -67 -58 -46 71 18
-48 64 -38 14 -6 17 12 -21
51 -61 -51 -55 101 -31 12 57
-64 10 23 -6 32 -14 -37 -8
-2 -23 -5 103 46 -17 13 12
-28 14 0 -15 4 24 3 39
20 -35 -9 -61 105 43 14 -82
24 -16 -84 -24 -53 59 58 -26
3 -53 74 4 40 -29 -35 29
18 35 -49 -5 -4 -28 -15 -10
64 49 5 -43 -39 -35 -95 -46
7 -12 -76 -47 -12 17 -4 4
0 -40 -36 -3 29 5 84 63
79 -19 66 -68 -45 -70 -10 110
33 3 -27 -127 -2 47 -26 -28
1 94 44 44 20 63 -18 -10
00000000: e481 e361 180e fcd7 0153 0747 c8d8 e6d9
00000010: bdee f5f3 04ea f42d ce1d 0f19 f255 ef39
00000020: 22ec 00d0 f6ed 02bc 2000 e411 0748 e2e1
00000030: 1501 ce06 f71c d4eb 0be7 3de4 1303 0ec1
00000040: e9d7 e9e9 25cc 2d0d a606 e439 d8ff 37d4
00000050: 64e2 ceec f8aa e5f8 dee5 f511 18d6 fb27
00000060: ee11 e316 14cf 0698 db0a 0e30 b2f1 dc15
00000070: 5013 a7d7 02bc dfe4 0408 fe21 1124 4adb
00000080: 1308 dbbd c6d2 4712 d040 da0e fa11 0ceb
00000090: 33c3 cdc9 65e1 0c39 c00a 17fa 20f2 dbf8
000000a0: fee9 fb67 2eef 0d0c e40e 00f1 0418 0327
000000b0: 14dd f7c3 692b 0eae 18f0 ace8 cb3b 3ae6
000000c0: 03cb 4a04 28e3 dd1d 1223 cffb fce4 f1f6
000000d0: 4031 05d5 d9dd a1d2 07f4 b4d1 f411 fc04
000000e0: 00d8 dcfd 1d05 543f 4fed 42bc d3ba f66e
000000f0: 2103 e581 fe2f e6e4 015e 2c2c 143f eef6

sbb3/conv3/w i1 [64, 3, 1, 64]
-36 30 44 39 26 14 -89 16
-86 0 -11 37 71 22 12 -5
-39 -7 14 -33 5 -59 13 -10
-10 18 6 66 5 9 -3 -6
39 -75 -47 -19 44 -18 60 57
16 -48 -1 -13 -66 -30 -28 11
-50 -9 72 22 -19 5 5 -15
8 3 15 19 24 -110 -32 10
7 -9 -13 27 -10 -23 -10 15
16 -13 10 -29 12 51 -20 26
-14 -10 18 8 -8 2 9 11
9 19 33 37 -18 10 -1 4
10 -25 -7 -2 21 -23 12 48
1 26 -22 8 1 5 -8 -21
-46 45 22 5 -5 -7 -1 8
8 -13 7 28 5 -65 -21 13
25 -81 -45 20 -24 15 -36 34
20 -15 26 -44 47 48 -6 38
-83 -28 8 -35 -13 -62 -12 5
-33 50 -17 55 5 36 34 46
61 -71 7 -25 -11 -45 2 127
6 -58 -46 27 -30 9 48 -58
-85 33 44 -5 -55 18 -6 9
-4 -53 28 33 -2 -90 -77 60
-7 13 24 -25 16 19 -51 -77
-11 -35 29 -11 25 38 -4 -2
-21 -21 -2 -22 -10 -41 9 -107
-62 -15 -13 -19 -1 -62 28 -93
-56 2 22 24 32 -23 -33 -116
16 -30 12 -51 -47 -59 -127 47
-2 -63 34 19 -35 -5 15 -32
6 -11 -12 -43 -25 39 -47 -3
00000000: dc1e 2c27 1a0e a710 aa00 f525 4716 0cfb
00000010: d9f9 0edf 05c5 0df6 f612 0642 0509 fdfa
00000020: 27b5 d1ed 2cee 3c39 10d0 fff3 bee2 e40b
00000030: cef7 4816 ed05 05f1 0803 0f13 1892 e00a
00000040: 07f7 f31b f6e9 f60f 10f3 0ae3 0c33 ec1a
00000050: f2f6 1208 f802 090b 0913 2125 ee0a ff04
00000060: 0ae7 f9fe 15e9 0c30 011a ea08 0105 f8eb
00000070: d22d 1605 fbf9 ff08 08f3 071c 05bf eb0d
00000080: 19af d314 e80f dc22 14f1 1ad4 2f30 fa26
00000090: ade4 08dd f3c2 f405 df32 ef37 0524 222e
000000a0: 3db9 07e7 f5d3 027f 06c6 d21b e209 30c6
000000b0: ab21 2cfb c912 fa09 fccb 1c21 fea6 b33c
000000c0: f90d 18e7 1013 cdb3 f5dd 1df5 1926 fcfe
000000d0: ebeb feea f6d7 0995 c2f1 f3ed ffc2 1ca3
000000e0: c802 1618 20e9 df8c 10e2 0ccd d1c5 812f
000000f0: fec1 2213 ddfb 0fe0 06f5 f4d5 e727 d1fd

sbb3/conv4/w i1 [256, 1, 1, 64]
-39 -52 -21 4 -2 40 -30 -43
-8 -27 -119 18 -34 -1 14 26
-40 -20 52 -21 22 9 -29 21
-115 32 6 -17 -14 -6 -127 -25
-4 -33 -88 -14 -22 -23 5 35
-85 28 23 -52 -48 -3 -108 19
-17 -78 -17 -49 38 1 -25 -13
3 -29 24 2 -21 -7 58 -55
39 -38 -2 12 14 -27 -3 10
-43 -71 -16 -35 31 -31 14 -4
5 -49 -15 -29 -11 -4 20 -2
34 32 -27 -17 -28 36 30 -30
-63 -23 -76 -38 29 -9 26 -94
-33 12 -127 -13 2 -44 -41 -16
34 8 -75 28 -34 -37 -1 33
0 73 0 2 -27 -29 -8 19
4 -13 41 58 78 19 -41 -6
44 -9 -102 10 9 -13 4 16
-78 34 -35 -50 -2 -53 34 79
-51 -52 0 -35 -35 12 37 -90
-24 -18 21 -16 -12 -57 -112 -64
53 -48 -5 83 -90 -13 -46 -27
-11 39 -23 13 -22 -127 58 -59
-36 -35 23 -31 -16 -25 -103 -16
4 -18 16 -4 35 -28 19 -59
9 -9 -127 -24 25 19 -42 -61
-21 -82 -60 -30 42 -26 9 2
-15 -11 5 18 31 -10 -63 31
-16 -62 -27 -28 4 -21 17 -65
0 32 29 -19 -37 17 -17 -11
-60 20 27 -31 8 19 0 24
20 63 1 15 -10 -68 -10 -34
00000000: d9cc eb04 fe28 e2d5 f8e5 8912 deff 0e1a
00000010: d8ec 34eb 1609 e315 8d20 06ef f2fa 81e7
00000020: fcdf a8f2 eae9 0523 ab1c 17cc d0fd 9413
00000030: efb2 efcf 2601 e7f3 03e3 1802 ebf9 3ac9
00000040: 27da fe0c 0ee5 fd0a d5b9 f0dd 1fe1 0efc
00000050: 05cf f1e3 f5fc 14fe 2220 e5ef e424 1ee2
00000060: c1e9 b4da 1df7 1aa2 df0c 81f3 02d4 d7f0
00000070: 2208 b51c dedb ff21 0049 0002 e5e3 f813
00000080: 04f3 293a 4e13 d7fa 2cf7 9a0a 09f3 0410
00000090: b222 ddce fecb 224f cdcc 00dd dd0c 25a6
000000a0: e8ee 15f0 f4c7 90c0 35d0 fb53 a6f3 d2e5
000000b0: f527 e90d ea81 3ac5 dcdd 17e1 f0e7 99f0
000000c0: 04ee 10fc 23e4 13c5 09f7 81e8 1913 d6c3
000000d0: ebae c4e2 2ae6 0902 f1f5 0512 1ff6 c11f
000000e0: f0c2 e5e4 04eb 11bf 0020 1ded db11 eff5
000000f0: c414 1be1 0813 0018 143f 010f f6bc f6de
