frigate/plate_detectors/alpr/LPRnet/weight/plate_ocr_quantizedINT8.tflite (tflite, 587792 bytes, 18 tensors)

batch_normalization/beta i1 [64] scale=0.009097102 zero_point=0
00000000: 0614 0329 f72a dd12 1691 f11d e81f 1423
00000010: 1020 001a e3b5 0240 2d09 1bfa 0a05 0101
00000020: bad4 0c27 210f 1ff7 0637 3712 fc01 3742
00000030: 09ef 1b0a 2626 f236 0e04 1600 81fb 0230
0.05458261 0.18194205 0.027291305 0.3729812 -0.081873916 0.3820783 -0.31839857 0.16374783
0.20013624 -1.0097784 -0.13645653 0.26381597 -0.21833044 0.28201017 0.18194205 0.31839857
0.14555363 0.29110727 0.0 0.23652466 -0.26381597 -0.6822827 0.018194204 0.58221453
0.4093696 0.081873916 0.24562176 -0.05458261 0.09097102 0.04548551 0.009097102 0.009097102
-0.63679713 -0.4002725 0.10916522 0.354787 0.30020437 0.13645653 0.28201017 -0.081873916
0.05458261 0.50034064 0.50034064 0.16374783 -0.03638841 0.009097102 0.50034064 0.60040873
0.081873916 -0.15465073 0.24562176 0.09097102 0.3456899 0.3456899 -0.12735943 0.4912435
0.12735943 0.03638841 0.20013624 0.0 -1.155332 -0.04548551 0.018194204 0.4366609

batch_normalization/FusedBatchNorm i1 [64] scale=0.008691035 zero_point=0
00000000: 6668 6661 5f58 6f75 595e 6b71 6170 6966
00000010: 6d6c 6771 6464 727f 5b5f 655a 7471 6062
00000020: 6566 6769 5467 6f69 6353 5d6c 6d52 5b4e
00000030: 5c73 6071 6d65 6666 7170 515b 5d72 6f76
0.8864856 0.90386766 0.8864856 0.8430304 0.82564837 0.7648111 0.96470493 1.0168511
0.7735021 0.8169573 0.92994076 0.98208696 0.8430304 0.97339594 0.9125587 0.8864856
0.94732285 0.9386318 0.89517665 0.98208696 0.86910355 0.86910355 0.990778 1.1037614
0.7908842 0.82564837 0.87779456 0.7821932 1.0081601 0.98208696 0.8343394 0.85172147
0.87779456 0.8864856 0.89517665 0.9125587 0.730047 0.89517665 0.96470493 0.9125587
0.8604125 0.7213559 0.8082663 0.9386318 0.94732285 0.7126649 0.7908842 0.67790073
0.7995752 0.99946904 0.8343394 0.98208696 0.94732285 0.87779456 0.8864856 0.8864856
0.98208696 0.97339594 0.7039738 0.7908842 0.8082663 0.990778 0.96470493 1.0255421

conv1/Conv2D i1 [64, 3, 3, 3]
00000000: 08cc f80e d303 fc78 3801 e9aa 1842 5afb
00000010: e7d5 eede c931 b3f9 f37f 48f0 d8f8 1923
00000020: 39f5 e40b eb9c 01ff e08c e981 fef7 beff
00000030: 073d 42f9 affe d1f1 f7f3 7f68 13f5 c4af
00000040: 4853 4b03 3909 bedc f05a 6c02 ffd7 33c1
00000050: b5d1 81c7 dbc0 c1ef f0d6 c6c5 e84b 3e27
00000060: 513a 3705 e6e2 0856 3a08 5334 053c 1b0a
00000070: 2d7f 23ed dcee 94b8 aeae 8f29 7639 0b2b
00000080: 24e1 c6df 1ffa d6e9 b281 cfea 5c2b fe46
00000090: dec8 def9 50be 0a20 3667 717e 21be d2c3
000000a0: fbb5 d42a 11a5 dcce ef0f 07ca 0efd 02b6
000000b0: 9da6 342f f4f2 0d81 523e fef0 0c01 e203
000000c0: 02e9 da00 5631 03fe f6fa a6db fefa 0108
000000d0: 7f63 ffdc bc02 eb01 d8d9 ead3 adb7 e3da
000000e0: edfc 1710 4a7f 56f9 bbfc 3015 22f7 8f8f
000000f0: 2c7c 421b d11d be7f 5f07 fee9 113d e6ce
8 -52 -8 14 -45 3 -4 120
56 1 -23 -86 24 66 90 -5
-25 -43 -18 -34 -55 49 -77 -7
-13 127 72 -16 -40 -8 25 35
57 -11 -28 11 -21 -100 1 -1
-32 -116 -23 -127 -2 -9 -66 -1
7 61 66 -7 -81 -2 -47 -15
-9 -13 127 104 19 -11 -60 -81
72 83 75 3 57 9 -66 -36
-16 90 108 2 -1 -41 51 -63
-75 -47 -127 -57 -37 -64 -63 -17
-16 -42 -58 -59 -24 75 62 39
81 58 55 5 -26 -30 8 86
58 8 83 52 5 60 27 10
45 127 35 -19 -36 -18 -108 -72
-82 -82 -113 41 118 57 11 43
36 -31 -58 -33 31 -6 -42 -23
-78 -127 -49 -22 92 43 -2 70
-34 -56 -34 -7 80 -66 10 32
54 103 113 126 33 -66 -46 -61
-5 -75 -44 42 17 -91 -36 -50
-17 15 7 -54 14 -3 2 -74
-99 -90 52 47 -12 -14 13 -127
82 62 -2 -16 12 1 -30 3
2 -23 -38 0 86 49 3 -2
-10 -6 -90 -37 -2 -6 1 8
127 99 -1 -36 -68 2 -21 1
-40 -39 -22 -45 -83 -73 -29 -38
-19 -4 23 16 74 127 86 -7
-69 -4 48 21 34 -9 -113 -113
44 124 66 27 -47 29 -66 127
95 7 -2 -23 17 61 -26 -50

sbb1/conv1/Conv2D i1 [32, 1, 1, 64]
00000000: 2b38 0e40 fde8 b70f dcb1 d344 1237 4e03
00000010: 21fb 15ab 38e7 0f10 203b 3d11 b0bf 34d5
00000020: 90e8 47d4 dc2d 050d 0860 63e3 f310 bbb4
00000030: 4ef3 3215 0ecf fb2f 0cff 7fc8 f15b 0140
00000040: e1da f2e5 0520 210b e8e3 0d06 ebff daf7
00000050: a113 e928 3330 f127 0ab6 0026 59be 470c
00000060: fad5 130c 20dc 8145 2815 edf4 db12 441d
00000070: f9a2 0c1a fc1b f53c 25dd 02c9 bce3 0dbd
00000080: 0de6 ff1b 2316 f00b f7e3 faeb ff1d 811a
00000090: 38c7 0ed8 05cf b119 e4f5 2cf0 973f 06fe
000000a0: 1d3b bbe6 d72f 2ae4 fee7 1e1f db19 ee38
000000b0: 08fd fada d1ca 2f36 0627 0fd8 1822 4115
000000c0: 31d5 2105 2836 fd4e fe15 4048 e3f0 d4e7
000000d0: edf8 e40d e696 c07f f00a 3554 fc45 f641
000000e0: f8cc bc36 0dcd 20ae 475d d65e ef45 ee58
000000f0: efba c555 0655 1d7f 245a 0552 d2d1 e84f
43 56 14 64 -3 -24 -73 15
-36 -79 -45 68 18 55 78 3
33 -5 21 -85 56 -25 15 16
32 59 61 17 -80 -65 52 -43
-112 -24 71 -44 -36 45 5 13
8 96 99 -29 -13 16 -69 -76
78 -13 50 21 14 -49 -5 47
12 -1 127 -56 -15 91 1 64
-31 -38 -14 -27 5 32 33 11
-24 -29 13 6 -21 -1 -38 -9
-95 19 -23 40 51 48 -15 39
10 -74 0 38 89 -66 71 12
-6 -43 19 12 32 -36 -127 69
40 21 -19 -12 -37 18 68 29
-7 -94 12 26 -4 27 -11 60
37 -35 2 -55 -68 -29 13 -67
13 -26 -1 27 35 22 -16 11
-9 -29 -6 -21 -1 29 -127 26
56 -57 14 -40 5 -49 -79 25
-28 -11 44 -16 -105 63 6 -2
29 59 -69 -26 -41 47 42 -28
-2 -25 30 31 -37 25 -18 56
8 -3 -6 -38 -47 -54 47 54
6 39 15 -40 24 34 65 21
49 -43 33 5 40 54 -3 78
-2 21 64 72 -29 -16 -44 -25
-19 -8 -28 13 -26 -106 -64 127
-16 10 53 84 -4 69 -10 65
-8 -52 -68 54 13 -51 32 -82
71 93 -42 94 -17 69 -18 88
-17 -70 -59 85 6 85 29 127
36 90 5 82 -46 -47 -24 79

sbb1/conv2/Conv2D i1 [32, 1, 3, 32]
00000000: dfeb 4f00 2827 fdee 1af7 1920 f5f9 fefe
00000010: 100d f738 d401 29f8 e6fe cdfa 290a 45e4
00000020: d1d9 05fc 1318 e7c2 05ea d91a 1422 f600
00000030: fcea ee21 d1ec dee8 db27 ea13 f1f7 0005
00000040: d9f4 08f5 1a0a df9d 4417 f35a 06dd 0a21
00000050: b1ed 81f0 971c f4e2 0100 e2e1 fa01 f8ff
00000060: f8f3 24d6 db2f f0ee a7b0 99d8 cb4a 3add
00000070: 59cf 2e5d 483c 323e d16b 273c 081a 57a9
00000080: 8d88 9ea6 d721 cb29 085a c6ec 967f 57f4
00000090: 2f06 f0ba f3d7 104c 2be6 0417 fb0e 020d
000000a0: f003 4a58 d75d ce12 21f1 947a e4b8 0d47
000000b0: 0514 2e42 d49e 39b4 2d4f b644 1729 5220
000000c0: eb43 810e 3936 e5a8 4dc4 4aaf d4c3 d435
000000d0: f61b 1312 0330 0cea f8fe 00ee d845 e8a0
000000e0: 0643 34d1 bf0a d936 be2a d218 7236 f101
000000f0: 1a22 6196 382d f2e3 2113 1318 1f9f 68d5
-33 -21 79 0 40 39 -3 -18
26 -9 25 32 -11 -7 -2 -2
16 13 -9 56 -44 1 41 -8
-26 -2 -51 -6 41 10 69 -28
-47 -39 5 -4 19 24 -25 -62
5 -22 -39 26 20 34 -10 0
-4 -22 -18 33 -47 -20 -34 -24
-37 39 -22 19 -15 -9 0 5
-39 -12 8 -11 26 10 -33 -99
68 23 -13 90 6 -35 10 33
-79 -19 -127 -16 -105 28 -12 -30
1 0 -30 -31 -6 1 -8 -1
-8 -13 36 -42 -37 47 -16 -18
-89 -80 -103 -40 -53 74 58 -35
89 -49 46 93 72 60 50 62
-47 107 39 60 8 26 87 -87
-115 -120 -98 -90 -41 33 -53 41
8 90 -58 -20 -106 127 87 -12
47 6 -16 -70 -13 -41 16 76
43 -26 4 23 -5 14 2 13
-16 3 74 88 -41 93 -50 18
33 -15 -108 122 -28 -72 13 71
5 20 46 66 -44 -98 57 -76
45 79 -74 68 23 41 82 32
-21 67 -127 14 57 54 -27 -88
77 -60 74 -81 -44 -61 -44 53
-10 27 19 18 3 48 12 -22
-8 -2 0 -18 -40 69 -24 -96
6 67 52 -47 -65 10 -39 54
-66 42 -46 24 114 54 -15 1
26 34 97 -106 56 45 -14 -29
33 19 19 24 31 -97 104 -43

sbb1/conv3/Conv2D i1 [32, 3, 1, 32]
00000000: 28e6 eb21 b81c 560b b0bd 18c9 0a02 ffee
00000010: 2d1a 25d3 2da9 f835 ea2d d94e 25f7 19fc
00000020: d61a d6d9 1032 09da 15dc eb34 3812 e405
00000030: 04b8 550a f502 0dd7 adf8 d0d4 dcf6 d908
00000040: f8f6 43ed 4423 dea8 c835 0c33 0b0d 071e
00000050: 1729 c1e3 c1dc 06d8 b13c 3825 f57f a6ea
00000060: 07ff 7f3a e0b5 7bfe c0d6 e6ca f778 d894
00000070: faf6 d112 1f2e c916 fbe3 332d c931 e3fa
00000080: 76f9 601e 20cf 171a e526 aeb7 2cea 3229
00000090: 45d1 0510 4bf6 252a a8a3 de17 eeea 4600
000000a0: 1816 e733 e81b 28d7 58f8 63ea f58e ae05
000000b0: e7bd 75fc 3b0f 15e6 16a7 9ad5 44b7 4d33
000000c0: a4e7 472e 505b 0eed 5575 f4e8 16f4 ec3e
000000d0: 20e0 1006 bed0 52aa b1de d6ea 3a39 56fb
000000e0: 58d9 20f7 f7d7 47d7 035c 3506 5ff2 fb81
000000f0: cef3 a2d7 1052 ee0a c4ee 94eb d417 9f48
40 -26 -21 33 -72 28 86 11
-80 -67 24 -55 10 2 -1 -18
45 26 37 -45 45 -87 -8 53
-22 45 -39 78 37 -9 25 -4
-42 26 -42 -39 16 50 9 -38
21 -36 -21 52 56 18 -28 5
4 -72 85 10 -11 2 13 -41
-83 -8 -48 -44 -36 -10 -39 8
-8 -10 67 -19 68 35 -34 -88
-56 53 12 51 11 13 7 30
23 41 -63 -29 -63 -36 6 -40
-79 60 56 37 -11 127 -90 -22
7 -1 127 58 -32 -75 123 -2
-64 -42 -26 -54 -9 120 -40 -108
-6 -10 -47 18 31 46 -55 22
-5 -29 51 45 -55 49 -29 -6
118 -7 96 30 32 -49 23 26
-27 38 -82 -73 44 -22 50 41
69 -47 5 16 75 -10 37 42
-88 -93 -34 23 -18 -22 70 0
24 22 -25 51 -24 27 40 -41
88 -8 99 -22 -11 -114 -82 5
-25 -67 117 -4 59 15 21 -26
22 -89 -102 -43 68 -73 77 51
-92 -25 71 46 80 91 14 -19
85 117 -12 -24 22 -12 -20 62
32 -32 16 6 -66 -48 82 -86
-79 -34 -42 -22 58 57 86 -5
88 -39 32 -9 -9 -41 71 -41
3 92 53 6 95 -14 -5 -127
-50 -13 -94 -41 16 82 -18 10
-60 -18 -108 -21 -44 23 -97 72

sbb1/conv4/Conv2D i1 [128, 1, 1, 32]
00000000: eca3 0524 c748 0af2 c50b 103e 9e04 f401
00000010: fdb6 3e62 d51c 81ea f620 1b28 00ff a3aa
00000020: d5c0 22c2 217b f7c8 7f1b bc0b 02d0 e1e3
00000030: 382d 30ce 0bfe 0a14 fe00 1873 d287 f5df
00000040: 1a5a f80e ea3f 15ec b6b5 15c6 e1ca 0dea
00000050: 331a f614 f306 cc7f d839 0d0a 1c15 cdd8
00000060: 2bd2 1424 f80a abec da59 2d04 65e5 c01f
00000070: 81e5 12b9 028b ea42 3d75 eb00 e7ec 1bcd
00000080: fedb 1c02 e231 0f00 fadc e822 33da e781
00000090: fc21 e113 31df f507 e99d 0e23 fa2d eb0f
000000a0: 20d2 edac 01ab 291c 43c2 dcc2 e20f 220d
000000b0: 7fde c619 0830 1ad4 220f 0013 03d2 3be2
000000c0: f62c e511 18f6 c77f fc0c ee0d e9d4 f519
000000d0: fa06 0d40 19ee 01f9 d7df eced 17c3 02e9
000000e0: 2bff 2505 1b1a 76df e513 f4bd 0a29 042a
000000f0: 8111 10d6 d0f4 bcc1 f300 1bee fcc6 ebe4
-20 -93 5 36 -57 72 10 -14
-59 11 16 62 -98 4 -12 1
-3 -74 62 98 -43 28 -127 -22
-10 32 27 40 0 -1 -93 -86
-43 -64 34 -62 33 123 -9 -56
127 27 -68 11 2 -48 -31 -29
56 45 48 -50 11 -2 10 20
-2 0 24 115 -46 -121 -11 -33
26 90 -8 14 -22 63 21 -20
-74 -75 21 -58 -31 -54 13 -22
51 26 -10 20 -13 6 -52 127
-40 57 13 10 28 21 -51 -40
43 -46 20 36 -8 10 -85 -20
-38 89 45 4 101 -27 -64 31
-127 -27 18 -71 2 -117 -22 66
61 117 -21 0 -25 -20 27 -51
-2 -37 28 2 -30 49 15 0
-6 -36 -24 34 51 -38 -25 -127
-4 33 -31 19 49 -33 -11 7
-23 -99 14 35 -6 45 -21 15
32 -46 -19 -84 1 -85 41 28
67 -62 -36 -62 -30 15 34 13
127 -34 -58 25 8 48 26 -44
34 15 0 19 3 -46 59 -30
-10 44 -27 17 24 -10 -57 127
-4 12 -18 13 -23 -44 -11 25
-6 6 13 64 25 -18 1 -7
-41 -33 -20 -19 23 -61 2 -23
43 -1 37 5 27 26 118 -33
-27 19 -12 -67 10 41 4 42
-127 17 16 -42 -48 -12 -68 -63
-13 0 27 -18 -4 -58 -21 -28

sbb2/conv1/Conv2D i1 [64, 1, 1, 128]
00000000: bdff 3103 e052 ea28 25f1 0981 1c20 0150
00000010: 19f3 1d33 05df 24ca 06ed 25a5 d4e5 39f4
00000020: 153c e6bf 34d6 c0f2 16c3 109d 00f3 c932
00000030: 3b4b 3ded ee00 e003 2ce4 d1d8 490c 41f7
00000040: 9cce 27ae 0e4c 05c2 1822 0f22 f530 47f2
00000050: 21da 3fdf 209d ab00 fb4e 4cec 1ae6 dc23
00000060: eec7 1ce6 3b9f e5b9 0539 d40b e31d d207
00000070: 26fa 5c52 11b7 9719 2804 0589 ef01 dae1
00000080: 2622 0d0a de0a 1631 dab8 24f1 c9f1 c8ea
00000090: cec5 b4e6 acc8 dc48 1e0d e3f8 c027 dfed
000000a0: 1802 3a09 05e2 36d2 0d26 30c0 f5eb 0dd8
000000b0: df1b 1401 295e 09fa 1635 f91e 1432 ed31
000000c0: 1ff8 c908 ed23 20ec fc30 41dd 0429 ddc8
000000d0: 4b09 06f7 00d8 bf21 dfff f818 dc0d f681
000000e0: fac6 f8fd e522 bf27 1e16 5c95 e4ec f0ca
000000f0: a904 e9f6 2ff2 f8f3 ece6 3916 8f0c 92f4
-67 -1 49 3 -32 82 -22 40
37 -15 9 -127 28 32 1 80
25 -13 29 51 5 -33 36 -54
6 -19 37 -91 -44 -27 57 -12
21 60 -26 -65 52 -42 -64 -14
22 -61 16 -99 0 -13 -55 50
59 75 61 -19 -18 0 -32 3
44 -28 -47 -40 73 12 65 -9
-100 -50 39 -82 14 76 5 -62
24 34 15 34 -11 48 71 -14
33 -38 63 -33 32 -99 -85 0
-5 78 76 -20 26 -26 -36 35
-18 -57 28 -26 59 -97 -27 -71
5 57 -44 11 -29 29 -46 7
38 -6 92 82 17 -73 -105 25
40 4 5 -119 -17 1 -38 -31
38 34 13 10 -34 10 22 49
-38 -72 36 -15 -55 -15 -56 -22
-50 -59 -76 -26 -84 -56 -36 72
30 13 -29 -8 -64 39 -33 -19
24 2 58 9 5 -30 54 -46
13 38 48 -64 -11 -21 13 -40
-33 27 20 1 41 94 9 -6
22 53 -7 30 20 50 -19 49
31 -8 -55 8 -19 35 32 -20
-4 48 65 -35 4 41 -35 -56
75 9 6 -9 0 -40 -65 33
-33 -1 -8 24 -36 13 -10 -127
-6 -58 -8 -3 -27 34 -65 39
30 22 92 -107 -28 -20 -16 -54
-87 4 -23 -10 47 -14 -8 -13
-20 -26 57 22 -113 12 -110 -12

sbb2/conv2/Conv2D i1 [64, 1, 3, 64]
00000000: 04d3 fdc8 c40b 131f f230 00dc d7a6 f7cd
00000010: 2d31 4b1f 09e8 f2dc 2dfa f302 253e dac6
00000020: 62f5 04ec e37f 37d1 210d 6f37 f519 f420
00000030: 46d6 d7fe 4633 fedc f83d cbf2 2f3b d41c
00000040: 36f9 d715 ddd3 a202 f0c8 12d2 11b7 b525
00000050: badd f83b 22d9 2f37 f5d5 14e8 c3d9 144a
00000060: e4ca 1126 f5e7 19e8 3c18 f03b c32a bd11
00000070: 02b6 031a d104 0126 ee0f f7f1 fd06 d10a
00000080: f933 03d6 231f ddeb e5f3 5ff2 4ab7 b712
00000090: c60d f61a 1ee5 1116 31f7 20fd fe42 e5fb
000000a0: 0712 1cd3 14f2 f4cb e1f2 0ee0 b5c8 10e1
000000b0: 00f7 3fe0 13db ff37 dd1b 10e9 d618 0fef
000000c0: 181c 28b6 e600 027f 5f3f 6de5 20cb 2834
000000d0: fdc2 cf2b 2204 0d13 24fb dfc3 172d b7fc
000000e0: 2439 c2ee c813 3109 e3b5 fdf4 de21 075c
000000f0: f7e6 d0ed e715 4ef6 65eb 42de d936 ff40
4 -45 -3 -56 -60 11 19 31
-14 48 0 -36 -41 -90 -9 -51
45 49 75 31 9 -24 -14 -36
45 -6 -13 2 37 62 -38 -58
98 -11 4 -20 -29 127 55 -47
33 13 111 55 -11 25 -12 32
70 -42 -41 -2 70 51 -2 -36
-8 61 -53 -14 47 59 -44 28
54 -7 -41 21 -35 -45 -94 2
-16 -56 18 -46 17 -73 -75 37
-70 -35 -8 59 34 -39 47 55
-11 -43 20 -24 -61 -39 20 74
-28 -54 17 38 -11 -25 25 -24
60 24 -16 59 -61 42 -67 17
2 -74 3 26 -47 4 1 38
-18 15 -9 -15 -3 6 -47 10
-7 51 3 -42 35 31 -35 -21
-27 -13 95 -14 74 -73 -73 18
-58 13 -10 26 30 -27 17 22
49 -9 32 -3 -2 66 -27 -5
7 18 28 -45 20 -14 -12 -53
-31 -14 14 -32 -75 -56 16 -31
0 -9 63 -32 19 -37 -1 55
-35 27 16 -23 -42 24 15 -17
24 28 40 -74 -26 0 2 127
95 63 109 -27 32 -53 40 52
-3 -62 -49 43 34 4 13 19
36 -5 -33 -61 23 45 -73 -4
36 57 -62 -18 -56 19 49 9
-29 -75 -3 -12 -34 33 7 92
-9 -26 -48 -19 -25 21 78 -10
101 -21 66 -34 -39 54 -1 64

sbb2/conv3/Conv2D i1 [64, 3, 1, 64]
00000000: 23e3 e8e5 921a a5e9 0d42 461b 0908 ecc8
00000010: ed19 f7dd 1590 d7eb 37c5 35d9 fce5 a60f
00000020: 20ed 3fc9 1323 06d9 e02b c80f 29a7 b8eb
00000030: 254c ebf5 3bcd e33c f910 00e7 cbef c105
00000040: 4805 e4f7 c6d8 0bfc db07 1023 21ea 5834
00000050: dff1 eae1 d38f b6d6 be38 06e2 ffe7 1927
00000060: 2ff8 280b 03fa 2f1a 1ccb d3ce 182a 4c37
00000070: 410f 070a f113 0d49 2633 eff6 facb 41cb
00000080: efe5 edfa 2be3 f7c8 fc38 d814 c80f 1458
00000090: 2df7 15f5 f891 32cd b838 da24 c7fc f3b4
000000a0: 06fc 7f30 dc0a 4ac1 f5f1 0030 f205 0d28
000000b0: e2b8 1d12 25c1 02c7 d1fb 22ee 26c7 3cd6
000000c0: c58a 0e3b e12d f711 d9f8 f4d7 e010 45ce
000000d0: ffbd 3930 0481 fd34 f85b 0928 2b1e 1d15
000000e0: e51e 2003 f920 0a25 1aa4 bac1 35b7 acd4
000000f0: f49c 08f1 f307 f70b 3b32 82f6 44dc d814
35 -29 -24 -27 -110 26 -91 -23
13 66 70 27 9 8 -20 -56
-19 25 -9 -35 21 -112 -41 -21
55 -59 53 -39 -4 -27 -90 15
32 -19 63 -55 19 35 6 -39
-32 43 -56 15 41 -89 -72 -21
37 76 -21 -11 59 -51 -29 60
-7 16 0 -25 -53 -17 -63 5
72 5 -28 -9 -58 -40 11 -4
-37 7 16 35 33 -22 88 52
-33 -15 -22 -31 -45 -113 -74 -42
-66 56 6 -30 -1 -25 25 39
47 -8 40 11 3 -6 47 26
28 -53 -45 -50 24 42 76 55
65 15 7 10 -15 19 13 73
38 51 -17 -10 -6 -53 65 -53
-17 -27 -19 -6 43 -29 -9 -56
-4 56 -40 20 -56 15 20 88
45 -9 21 -11 -8 -111 50 -51
-72 56 -38 36 -57 -4 -13 -76
6 -4 127 48 -36 10 74 -63
-11 -15 0 48 -14 5 13 40
-30 -72 29 18 37 -63 2 -57
-47 -5 34 -18 38 -57 60 -42
-59 -118 14 59 -31 45 -9 17
-39 -8 -12 -41 -32 16 69 -50
-1 -67 57 48 4 -127 -3 52
-8 91 9 40 43 30 29 21
-27 30 32 3 -7 32 10 37
26 -92 -70 -63 53 -73 -84 -44
-12 -100 8 -15 -13 7 -9 11
59 50 -126 -10 68 -36 -40 20

sbb2/conv4/Conv2D i1 [256, 1, 1, 64]
00000000: e9f8 1ecb d2ec 2afe d5cd cbc5 ebec ea05
00000010: e3e9 c1d2 e415 0bc9 2316 0014 f827 fe16
00000020: 2e05 e923 5bfe 1f36 1c3a 0532 0ec7 10d1
00000030: db13 f2c0 d108 81d8 d206 e7e2 db07 0cd3
00000040: e6bb fbd7 2fd5 aa1e 4eae ffeb 07b5 9d9a
00000050: 2f3a 0a53 e71f c018 12eb ccfd e215 d7e9
00000060: 81b7 43f2 ffcd d751 fef8 f5dd 21f8 d291
00000070: 2fe3 662f 1a3b 3006 fbe9 43b5 16ee adf2
00000080: ecde c5ca 5271 c6b2 e250 3934 1812 d003
00000090: 6c06 1a81 1156 e5be 2cd0 02e3 0144 91e0
000000a0: 0ef2 dae5 1b56 de0a 3a0f 1ae1 e532 bfa3
000000b0: e0b1 fe30 d70d fba0 fb19 9cc0 200f 283e
000000c0: caed 271c 0165 2bf2 2fb5 b9e7 a00c f3ce
000000d0: 0711 4181 e029 1284 b000 510a e503 bdec
000000e0: 3907 3699 bac5 fbc1 cdf9 39fd 38c0 e9d4
000000f0: 35d3 d6ea 18cb c138 f924 c437 0101 0603
-23 -8 30 -53 -46 -20 42 -2
-43 -51 -53 -59 -21 -20 -22 5
-29 -23 -63 -46 -28 21 11 -55
35 22 0 20 -8 39 -2 22
46 5 -23 35 91 -2 31 54
28 58 5 50 14 -57 16 -47
-37 19 -14 -64 -47 8 -127 -40
-46 6 -25 -30 -37 7 12 -45
-26 -69 -5 -41 47 -43 -86 30
78 -82 -1 -21 7 -75 -99 -102
47 58 10 83 -25 31 -64 24
18 -21 -52 -3 -30 21 -41 -23
-127 -73 67 -14 -1 -51 -41 81
-2 -8 -11 -35 33 -8 -46 -111
47 -29 102 47 26 59 48 6
-5 -23 67 -75 22 -18 -83 -14
-20 -34 -59 -54 82 113 -58 -78
-30 80 57 52 24 18 -48 3
108 6 26 -127 17 86 -27 -66
44 -48 2 -29 1 68 -111 -32
14 -14 -38 -27 27 86 -34 10
58 15 26 -31 -27 50 -65 -93
-32 -79 -2 48 -41 13 -5 -96
-5 25 -100 -64 32 15 40 62
-54 -19 39 28 1 101 43 -14
47 -75 -71 -25 -96 12 -13 -50
7 17 65 -127 -32 41 18 -124
-80 0 81 10 -27 3 -67 -20
57 7 54 -103 -70 -59 -5 -63
-51 -7 57 -3 56 -64 -23 -44
53 -45 -42 -22 24 -53 -63 56
-7 36 -60 55 1 1 6 3

sbb3/conv1/Conv2D i1 [64, 1, 1, 256]
00000000: f7f4 0033 c8f3 1e1b e3f7 ce26 170e 15d3
00000010: fcff 0234 ebfb 0f15 ee01 0b08 09f5 290e
00000020: 2ff5 2c0b 0814 e81f fb14 fde4 b3f8 0b12
00000030: ff06 022c ee21 df02 0713 1b1b 0212 022f
00000040: f321 191f fbfe 1afc 0d07 2c27 ebf6 1226
00000050: f7e4 e5f8 cb81 ebeb 01da 1303 0311 eee0
00000060: 1c36 f4d8 1f10 00d1 16f9 f9e5 2dff e8dc
00000070: 1cd6 ebe5 e5ed dfd8 1e1b e809 0407 e42e
00000080: 0ffe db12 10f9 0fe9 d80e 19e7 f5df 14cb
00000090: 2734 0c2a e8dd 23dd 1800 d8c8 0119 f2e0
000000a0: 2e1a fee2 fff7 de42 0ed4 170e ce1b e7da
000000b0: f3e3 dec8 fcee 0af4 39ee 24ce f9e2 03f2
000000c0: d401 e0cc 0ee8 3ef6 060b dde3 172d 4100
000000d0: f2ef d1f0 e3ed f229 fff2 e103 1715 cbec
000000e0: deee 0be7 e2d0 fae3 09d5 0d04 fe04 faf1
000000f0: f3c4 e700 ef0a dfb6 f9d9 18f1 e909 2103
-9 -12 0 51 -56 -13 30 27
-29 -9 -50 38 23 14 21 -45
-4 -1 2 52 -21 -5 15 21
-18 1 11 8 9 -11 41 14
47 -11 44 11 8 20 -24 31
-5 20 -3 -28 -77 -8 11 18
-1 6 2 44 -18 33 -33 2
7 19 27 27 2 18 2 47
-13 33 25 31 -5 -2 26 -4
13 7 44 39 -21 -10 18 38
-9 -28 -27 -8 -53 -127 -21 -21
1 -38 19 3 3 17 -18 -32
28 54 -12 -40 31 16 0 -47
22 -7 -7 -27 45 -1 -24 -36
28 -42 -21 -27 -27 -19 -33 -40
30 27 -24 9 4 7 -28 46
15 -2 -37 18 16 -7 15 -23
-40 14 25 -25 -11 -33 20 -53
39 52 12 42 -24 -35 35 -35
24 0 -40 -56 1 25 -14 -32
46 26 -2 -30 -1 -9 -34 66
14 -44 23 14 -50 27 -25 -38
-13 -29 -34 -56 -4 -18 10 -12
57 -18 36 -50 -7 -30 3 -14
-44 1 -32 -52 14 -24 62 -10
6 11 -35 -29 23 45 65 0
-14 -17 -47 -16 -29 -19 -14 41
-1 -14 -31 3 23 21 -53 -20
-34 -18 11 -25 -30 -48 -6 -29
9 -43 13 4 -2 4 -6 -15
-13 -60 -25 0 -17 10 -33 -74
-7 -39 24 -15 -23 9 33 3

sbb3/conv2/Conv2D i1 [64, 1, 3, 64]
00000000: be21 f823 e61e 0707 810a 521d ebda 15f9
00000010: 05eb 03e0 1831 02f8 0601 09d8 e703 030f
00000020: 08e8 0e04 fc1e e50c 13f7 03f5 ff0f fb27
00000030: 0bf8 13fb 2ddd f530 eb03 13f6 e3d8 0cf0
00000040: d30f 030e 0827 fd08 06f3 1dfa 021f dee7
00000050: 230e 17ca f6e0 fde5 06fd 301c 0ade fbf4
00000060: f8ea f205 c6f5 fb29 2e02 18fa e41d f9f2
00000070: 0108 2a08 28e6 2101 0cf2 f6d9 fbcd eafc
00000080: ea13 fa1a 21fe dd06 001b fbd7 1ffd 02ea
00000090: 14ed f4e4 dbfb 0af2 f314 1d2b f718 f0f4
000000a0: faf6 f6f0 ecfc d41a 4310 0d06 eeed 1eb6
000000b0: e2f8 0113 0fce 13ea 0be8 2ec9 f9e0 f313
000000c0: dd32 e6fe 0018 180a 0a22 f21c c03b 2aae
000000d0: d4f5 cb23 01fc dced e825 1e3a 0bf8 e5f2
000000e0: fc0b e329 bf05 ea21 4103 36fe 1132 def4
000000f0: 41af 00c0 23f7 0ebd 1df7 1620 ee0e e9d8
-66 33 -8 35 -26 30 7 7
-127 10 82 29 -21 -38 21 -7
5 -21 3 -32 24 49 2 -8
6 1 9 -40 -25 3 3 15
8 -24 14 4 -4 30 -27 12
19 -9 3 -11 -1 15 -5 39
11 -8 19 -5 45 -35 -11 48
-21 3 19 -10 -29 -40 12 -16
-45 15 3 14 8 39 -3 8
6 -13 29 -6 2 31 -34 -25
35 14 23 -54 -10 -32 -3 -27
6 -3 48 28 10 -34 -5 -12
-8 -22 -14 5 -58 -11 -5 41
46 2 24 -6 -28 29 -7 -14
1 8 42 8 40 -26 33 1
12 -14 -10 -39 -5 -51 -22 -4
-22 19 -6 26 33 -2 -35 6
0 27 -5 -41 31 -3 2 -22
20 -19 -12 -28 -37 -5 10 -14
-13 20 29 43 -9 24 -16 -12
-6 -10 -10 -16 -20 -4 -44 26
67 16 13 6 -18 -19 30 -74
-30 -8 1 19 15 -50 19 -22
11 -24 46 -55 -7 -32 -13 19
-35 50 -26 -2 0 24 24 10
10 34 -14 28 -64 59 42 -82
-44 -11 -53 35 1 -4 -36 -19
-24 37 30 58 11 -8 -27 -14
-4 11 -29 41 -65 5 -22 33
65 3 54 -2 17 50 -34 -12
65 -81 0 -64 35 -9 14 -67
29 -9 22 32 -18 14 -23 -40

sbb3/conv3/Conv2D i1 [64, 3, 1, 64]
00000000: bc45 fb14 eea7 040c bb4d f7ec d41c 19fa
00000010: c6be dd3c 011e efc9 fcfa f8d3 1681 56f2
00000020: 2d00 16b1 f010 050b 10f9 2df7 d0e8 e807
00000030: fb17 cd34 18dd b22e bf0a 0123 17ef ae1a
00000040: 1e26 e0da ec81 d9ef adf3 d9fc e302 290d
00000050: 1cd2 cd2e f80a ebff 152f 04f1 17fc 1eea
00000060: 4905 eac6 27f6 12b1 eed4 2914 e5f0 e406
00000070: e7eb e6fc 1df9 03f1 b600 e920 43e0 04c5
00000080: 2f4c ed07 2b8e ecf3 bd22 b21b faea 24e1
00000090: f3fe 9d21 1529 ba17 15c0 d855 bfe8 fadd
000000a0: 21f8 e4ae 0146 3b9c f9f1 4505 32df 0cee
000000b0: 1305 01ca 2efd fecc e1ff 1f49 3d14 17ab
000000c0: 1bed d7db e081 050b eed4 f8fd e709 12ba
000000d0: f4f8 fd37 c547 03b2 d3c9 3ddf bfd7 3a05
000000e0: f6dc 172f 20cd 6313 2ad7 04ca eee1 f6e7
000000f0: fdef da27 3e30 e90e f7f4 e504 f90b 0d05
-68 69 -5 20 -18 -89 4 12
-69 77 -9 -20 -44 28 25 -6
-58 -66 -35 60 1 30 -17 -55
-4 -6 -8 -45 22 -127 86 -14
45 0 22 -79 -16 16 5 11
16 -7 45 -9 -48 -24 -24 7
-5 23 -51 52 24 -35 -78 46
-65 10 1 35 23 -17 -82 26
30 38 -32 -38 -20 -127 -39 -17
-83 -13 -39 -4 -29 2 41 13
28 -46 -51 46 -8 10 -21 -1
21 47 4 -15 23 -4 30 -22
73 5 -22 -58 39 -10 18 -79
-18 -44 41 20 -27 -16 -28 6
-25 -21 -26 -4 29 -7 3 -15
-74 0 -23 32 67 -32 4 -59
47 76 -19 7 43 -114 -20 -13
-67 34 -78 27 -6 -22 36 -31
-13 -2 -99 33 21 41 -70 23
21 -64 -40 85 -65 -24 -6 -35
33 -8 -28 -82 1 70 59 -100
-7 -15 69 5 50 -33 12 -18
19 5 1 -54 46 -3 -2 -52
-31 -1 31 73 61 20 23 -85
27 -19 -41 -37 -32 -127 5 11
-18 -44 -8 -3 -25 9 18 -70
-12 -8 -3 55 -59 71 3 -78
-45 -55 61 -33 -65 -41 58 5
-10 -36 23 47 32 -51 99 19
42 -41 4 -54 -18 -31 -10 -25
-3 -17 -38 39 62 48 -23 14
-9 -12 -27 4 -7 11 13 5

sbb3/conv4/Conv2D i1 [256, 1, 1, 64]
00000000: f9f4 1cba 1c3d bcbe 0f8f e1b6 0eb9 277f
00000010: dcea de07 bbd3 3f0c 1a10 02b9 87f5 0cde
00000020: 0b21 f838 cd3e 87f0 da1d eabd f31f de0c
00000030: b20f c4e5 16cc ef1b 4e32 f4ab 08df d5cd
00000040: 0dd4 04e0 f90d 34e6 07fc 3c14 fe2e 2551
00000050: e03a c611 e6c5 f204 2be7 f5ec e5e2 1ced
00000060: cef5 c612 25f4 fcd1 e22a 2304 f7b7 f6ec
00000070: d624 19f4 15e9 11c7 811a d10f 1a14 c91b
00000080: 3cd9 defb eb20 c1b7 3ff0 1ad2 e91d f8b5
00000090: fd0a 4aee 49f2 05e6 c74f c605 21e8 fac7
000000a0: e3d7 2681 d32a 1137 bf2a eee3 f11e 3e1c
000000b0: e7d1 ccc3 adc8 f417 2bf6 fc1f f5ee d6c9
000000c0: c081 cce8 0d13 1aeb ce21 0d0f f734 fae8
000000d0: dfec cefd 05d7 1815 1fce 250a 0df7 1907
000000e0: 04e4 c2f8 2738 bc0c 28f0 f8d8 0616 39cf
000000f0: c92a 050c 0316 10f9 2f17 e207 27ef cd14
-7 -12 28 -70 28 61 -68 -66
15 -113 -31 -74 14 -71 39 127
-36 -22 -34 7 -69 -45 63 12
26 16 2 -71 -121 -11 12 -34
11 33 -8 56 -51 62 -121 -16
-38 29 -22 -67 -13 31 -34 12
-78 15 -60 -27 22 -52 -17 27
78 50 -12 -85 8 -33 -43 -51
13 -44 4 -32 -7 13 52 -26
7 -4 60 20 -2 46 37 81
-32 58 -58 17 -26 -59 -14 4
43 -25 -11 -20 -27 -30 28 -19
-50 -11 -58 18 37 -12 -4 -47
-30 42 35 4 -9 -73 -10 -20
-42 36 25 -12 21 -23 17 -57
-127 26 -47 15 26 20 -55 27
60 -39 -34 -5 -21 32 -63 -73
63 -16 26 -46 -23 29 -8 -75
-3 10 74 -18 73 -14 5 -26
-57 79 -58 5 33 -24 -6 -57
-29 -41 38 -127 -45 42 17 55
-65 42 -18 -29 -15 30 62 28
-25 -47 -52 -61 -83 -56 -12 23
43 -10 -4 31 -11 -18 -42 -55
-64 -127 -52 -24 13 19 26 -21
-50 33 13 15 -9 52 -6 -24
-33 -20 -50 -3 5 -41 24 21
31 -50 37 10 13 -9 25 7
4 -28 -62 -8 39 56 -68 12
40 -16 -8 -40 6 22 57 -49
-55 42 5 12 3 22 16 -7
47 23 -30 7 39 -17 -51 20

conv_d1/Conv2D i1 [256, 1, 4, 256]
00000000: 06fc 1b03 0002 f300 d1f1 031c 0114 0eff
00000010: fc04 00ed 220e 1f1b e0d7 16fe 08ea 07ef
00000020: e2e8 d0fa 0712 ddf7 32df 0aff e815 fef9
00000030: 0717 220a 0a0a 0112 0120 ff16 04ed 10d4
00000040: 1dfc 201f 19f2 f007 f0f2 dbf6 1113 e731
00000050: 0a01 032d f3f7 00fc db13 bdeb 0712 1014
00000060: 0af5 0b01 1bfb 260a 10d9 cd03 e600 eaf1
00000070: 2b14 1ef7 fb0e f6d6 01fa fadf f9dc 0a19
00000080: f3b0 0cfe 1f34 0322 d0f6 45f7 1018 11e1
00000090: dc30 f81f f728 1701 0419 f40f e810 0a04
000000a0: 09f4 01f0 08fd ecee 01dc f43b d510 d8ff
000000b0: 20f3 0129 2e07 12fb f0ff 03f6 0400 fbda
000000c0: e1f4 e6d7 0312 e0e2 22c6 ce0d 05ae 31ce
000000d0: 09fc f506 0407 f10c 1df4 0528 0bf4 09ee
000000e0: d6fe 2315 fd1e e000 e201 dc2d 130b eeef
000000f0: 0ac8 fe06 fbe5 f713 0b02 00d8 f0f5 fae3
6 -4 27 3 0 2 -13 0
-47 -15 3 28 1 20 14 -1
-4 4 0 -19 34 14 31 27
-32 -41 22 -2 8 -22 7 -17
-30 -24 -48 -6 7 18 -35 -9
50 -33 10 -1 -24 21 -2 -7
7 23 34 10 10 10 1 18
1 32 -1 22 4 -19 16 -44
29 -4 32 31 25 -14 -16 7
-16 -14 -37 -10 17 19 -25 49
10 1 3 45 -13 -9 0 -4
-37 19 -67 -21 7 18 16 20
10 -11 11 1 27 -5 38 10
16 -39 -51 3 -26 0 -22 -15
43 20 30 -9 -5 14 -10 -42
1 -6 -6 -33 -7 -36 10 25
-13 -80 12 -2 31 52 3 34
-48 -10 69 -9 16 24 17 -31
-36 48 -8 31 -9 40 23 1
4 25 -12 15 -24 16 10 4
9 -12 1 -16 8 -3 -20 -18
1 -36 -12 59 -43 16 -40 -1
32 -13 1 41 46 7 18 -5
-16 -1 3 -10 4 0 -5 -38
-31 -12 -26 -41 3 18 -32 -30
34 -58 -50 13 5 -82 49 -50
9 -4 -11 6 4 7 -15 12
29 -12 5 40 11 -12 9 -18
-42 -2 35 21 -3 30 -32 0
-30 1 -36 45 19 11 -18 -17
10 -56 -2 6 -5 -27 -9 19
11 2 0 -40 -16 -11 -6 -29

conv_d2/Conv2D i1 [35, 13, 1, 256]
00000000: e1ef 0cf3 39f4 e10b f5f5 e6f0 fe09 16fc
00000010: 0515 f009 dff7 cff9 07c9 1b0c 1603 d5f7
00000020: eedf 0bca 1ad8 09be f8fa 1a0a 000c 2c31
00000030: 0409 2628 fbfb c807 e927 14e3 02f5 c730
00000040: fcf0 ee26 1711 e62d 1ef4 e808 f60e 08f5
00000050: f41d c70f f60c 1809 f217 ec29 10c7 e50b
00000060: 2412 04e5 ccab 00e3 c2d2 fe06 1406 e20b
00000070: 04f2 0201 e1ff f81e 1104 ffee 0efe f5f1
00000080: 2ddd 1bf9 1c2f 0215 fd06 00f4 f70e e70e
00000090: f7f2 f8c3 f4b8 d4d8 c8d8 20e8 13e2 0210
000000a0: d6d4 04f0 fb13 fdfe fdff ecd0 d2f0 17ea
000000b0: ef1f 15e8 f7d8 fa1a 10f6 e102 e8fc edf4
000000c0: f812 28f2 d3d1 df19 c81a faf5 00fd 240c
000000d0: 120e f4fe 12f9 d2f3 14fa 0ab4 f7f1 e5d5
000000e0: d3e5 0fbf fece 051d 05ce 12ee 02d7 daef
000000f0: ef02 1521 f607 ef28 2911 2800 f7d0 e203
-31 -17 12 -13 57 -12 -31 11
-11 -11 -26 -16 -2 9 22 -4
5 21 -16 9 -33 -9 -49 -7
7 -55 27 12 22 3 -43 -9
-18 -33 11 -54 26 -40 9 -66
-8 -6 26 10 0 12 44 49
4 9 38 40 -5 -5 -56 7
-23 39 20 -29 2 -11 -57 48
-4 -16 -18 38 23 17 -26 45
30 -12 -24 8 -10 14 8 -11
-12 29 -57 15 -10 12 24 9
-14 23 -20 41 16 -57 -27 11
36 18 4 -27 -52 -85 0 -29
-62 -46 -2 6 20 6 -30 11
4 -14 2 1 -31 -1 -8 30
17 4 -1 -18 14 -2 -11 -15
45 -35 27 -7 28 47 2 21
-3 6 0 -12 -9 14 -25 14
-9 -14 -8 -61 -12 -72 -44 -40
-56 -40 32 -24 19 -30 2 16
-42 -44 4 -16 -5 19 -3 -2
-3 -1 -20 -48 -46 -16 23 -22
-17 31 21 -24 -9 -40 -6 26
16 -10 -31 2 -24 -4 -19 -12
-8 18 40 -14 -45 -47 -33 25
-56 26 -6 -11 0 -3 36 12
18 14 -12 -2 18 -7 -46 -13
20 -6 10 -76 -9 -15 -27 -43
-45 -27 15 -65 -2 -50 5 29
5 -50 18 -18 2 -41 -38 -17
-17 2 21 33 -10 7 -17 40
41 17 40 0 -9 -48 -30 3

conv_out/Conv2D i1 [35, 1, 1, 483]
00000000: d2ff dae7 eef0 2de9 1b1e 45db f409 050b
00000010: 15e9 defa f60f 1c1e fae3 1642 e3f4 eaf4
00000020: 040e e2fe cd01 fadd fe2f 08ee f2f7 1e09
00000030: d2f9 1602 02da f8f8 13f0 f5ed 26f1 de22
00000040: f0dc 021e 0c07 29cf 0d28 083e fef7 e5a4
00000050: b426 e6f2 11fa 9dfc d9f6 f0f1 dbfd 14f9
00000060: e30c 520d 1bd4 100f 0404 e0c2 f5e7 0fd5
00000070: f221 c3fe 1a0f 131f 0707 0dff f0e1 0d11
00000080: 1d03 0faa f7ea f81f 9e01 df3c 640a 2c07
00000090: 1efd b306 ea0f 4a16 12f7 07e1 1af4 ac81
000000a0: 1df4 eafe ea03 e5f2 0deb 2cfc d936 0591
000000b0: 0d10 e0ec 15fd d0f4 e909 15ab 2dfb 1619
000000c0: 26ec 0ae6 14f3 30c9 fe01 e9db 09bd 0008
000000d0: 13e3 16ee 21e8 03d9 eedf 2e02 c505 ffdd
000000e0: 1bef 0136 ec0a eb36 1b05 3ff3 fd0f d7a9
000000f0: 130e d32f 12e5 fe22 fad3 aa0b dad6 243a
-46 -1 -38 -25 -18 -16 45 -23
27 30 69 -37 -12 9 5 11
21 -23 -34 -6 -10 15 28 30
-6 -29 22 66 -29 -12 -22 -12
4 14 -30 -2 -51 1 -6 -35
-2 47 8 -18 -14 -9 30 9
-46 -7 22 2 2 -38 -8 -8
19 -16 -11 -19 38 -15 -34 34
-16 -36 2 30 12 7 41 -49
13 40 8 62 -2 -9 -27 -92
-76 38 -26 -14 17 -6 -99 -4
-39 -10 -16 -15 -37 -3 20 -7
-29 12 82 13 27 -44 16 15
4 4 -32 -62 -11 -25 15 -43
-14 33 -61 -2 26 15 19 31
7 7 13 -1 -16 -31 13 17
29 3 15 -86 -9 -22 -8 31
-98 1 -33 60 100 10 44 7
30 -3 -77 6 -22 15 74 22
18 -9 7 -31 26 -12 -84 -127
29 -12 -22 -2 -22 3 -27 -14
13 -21 44 -4 -39 54 5 -111
13 16 -32 -20 21 -3 -48 -12
-23 9 21 -85 45 -5 22 25
38 -20 10 -26 20 -13 48 -55
-2 1 -23 -37 9 -67 0 8
19 -29 22 -18 33 -24 3 -39
-18 -33 46 2 -59 5 -1 -35
27 -17 1 54 -20 10 -21 54
27 5 63 -13 -3 15 -41 -87
19 14 -45 47 18 -27 -2 34
-6 -45 -86 11 -38 -42 36 58
